lab2/results/weights/EEGNet_ELU-84.63.pth (torch_old, 147584 bytes, 17 tensors)

firstConv.0.weight f8 [16, 1, 1, 51]
000000 46 67 a9 b4 31 18 bb 3f 09 cb ad 57 96 21 bb 3f
       0.10583792362868136 0.10598125115010872
000010 e3 a3 05 c3 45 2f b6 3f 3d 47 15 12 89 5f b1 3f
       0.08665882121353223 0.06786400500757579
000020 56 dd 93 dd 15 ae c1 bf 89 70 3a 9a 99 91 b7 3f
       -0.1381251651689392 0.09206542983378276
000030 7f a1 d3 a8 98 36 b5 bf 26 aa f2 b4 4a 0b c0 3f
       -0.08286432382340612 0.1253445991072379
000040 39 d5 fb 1e 97 a0 cd 3f 76 6d b3 e3 38 f5 ce 3f
       0.23146332753064217 0.24185858839232893
000050 dc 6a 4b c1 1c fc a6 3f 40 9d 03 7c b2 c9 b2 bf
       0.04489221438935484 -0.07339015510261948
000060 80 50 7f 14 59 06 7e bf ee e8 f2 c3 ae af 5b 3f
       -0.007330272645010294 0.001689835233078581
000070 df d7 68 e9 3d df a1 3f c3 d3 2c 5f 65 f6 af 3f
       0.034906325094581574 0.06242672716908928
000080 96 6a 19 6a 3c 5a bf bf 38 02 c3 7d e5 81 bb 3f
       -0.12247064199747579 0.10745081253390587
000090 19 2e 33 d4 f4 29 b4 3f a7 eb a0 f9 6c b8 bd 3f
       0.07876520329153215 0.11609536261032237
0000a0 80 bf 87 6d 04 64 c5 3f 6a e9 21 d1 8d 1b c6 3f
       0.16711478565366278 0.17271588050409586
0000b0 1b 34 d9 c0 9e 7c 72 bf 39 42 cd c2 98 c7 af 3f
       -0.0045133782674158475 0.062069677142634956
0000c0 6d fc c0 8a 5a 17 c1 bf b3 0c 59 a1 16 ad 81 3f
       -0.13352519774523178 0.008630921172090167
0000d0 fe 9e 26 d1 de 2e 92 3f 44 71 de 32 a1 2b b9 bf
       0.017756921306186328 -0.09832198612133874
0000e0 9a fb 39 ad 82 09 ac bf 02 1b 98 de 1f 4d b0 bf
       -0.05476005901890986 -0.06367682632854257
0000f0 ee 5d a4 e5 a0 aa 93 3f 6b f7 79 fc 69 90 b7 bf
       0.019205583587874324 -0.09204733289695148
000100 66 d6 cd 71 10 14 c5 3f 60 a8 d6 f0 08 93 bf 3f
       0.1646748119052745 0.12333732490393023
000110 39 0b 6e 44 c7 d5 b1 3f d0 98 e1 e6 a9 21 b4 3f
       0.06966824932719086 0.07863866698025679
000120 16 f7 92 74 ad 30 ab 3f f4 7a 79 5c 35 7f ac bf
       0.05310575531028243 -0.055658023394007744
000130 6f 1e e7 24 a7 1d c0 bf 89 fb 22 82 97 4c b4 bf
       -0.12590493490118912 -0.07929369856991121
000140 7f 75 0f 51 c5 21 c0 bf 36 6c dd 22 1b e6 a3 bf
       -0.12603060205485048 -0.038864944463704296
000150 47 26 8e 44 73 36 c0 3f 81 7e 52 e4 ad bd b3 3f
       0.12666169021058435 0.0771130258967734
000160 e9 15 4d 7b a2 c4 bc 3f 38 3a 88 9d 93 ed a2 3f
       0.11237540731698172 0.036968815784451825
000170 8b c7 95 c9 6d 7f bb 3f 53 74 64 74 63 b7 a1 bf
       0.10741316005240102 -0.03460226817899383
000180 04 46 5a 7b 50 b1 7b bf 8a d0 f3 38 22 55 b5 bf
       -0.006760897047244811 -0.083330286888499
000190 30 93 f3 02 a1 6f af bf 1a e7 fe 9c 4e fb b3 3f
       -0.061398536310468876 0.07805339177039308
0001a0 bf d8 bb 1c b6 c2 b3 bf 11 1c 13 30 8a 08 94 bf
       -0.07718980981357769 -0.019563826736682503
0001b0 58 a8 d2 08 7a d6 37 3f ce 8f 73 55 64 c5 66 3f
       0.0003637359557823231 0.002779670681421798
0001c0 16 c5 46 53 3e 56 ad 3f 03 71 c6 ce 75 ef 85 bf
       0.05729861036832966 -0.010710640309121283
0001d0 b9 7a e4 02 c5 d9 71 bf 66 bb 97 d4 d5 06 c0 bf
       -0.004358071875940333 -0.12520859604361617
0001e0 fd ad d6 9c e9 41 b6 3f 98 be 99 49 4b 18 c1 3f
       0.08694324568812557 0.1335538968446499
0001f0 38 b2 75 56 03 1b b1 bf d6 9f ed 7e 25 5e c5 bf
       -0.06681843624910122 -0.16693562219302177
000200 b5 73 d9 14 b9 cf b6 3f 08 2c 17 ea 47 6f 5e bf
       0.08910710104960524 -0.0018575861252994059
000210 09 79 26 72 b5 11 bf 3f dd d1 88 23 a4 8a b5 bf
       0.12136396443245102 -0.08414674632587756
000220 5c 96 01 d5 d6 12 aa bf 03 69 09 a9 cd 3f af bf
       -0.050924981595738855 -0.06103365601002688
000230 f6 88 73 c9 52 da bb 3f d4 7f f4 af c9 85 b3 3f
       0.10880010050053443 0.07626019044664584
000240 d7 09 3a 0a cf 07 9a bf bb 89 d4 3a fd 2d c6 bf
       -0.025420413016499523 -0.1732784783608404
000250 06 2f ef f9 15 20 b0 3f 89 cd 18 c6 b5 0b b7 3f
       0.06298959113990685 0.09002243124341737
000260 47 d8 a4 b8 0b e1 b6 3f 40 67 94 2b 44 ee c6 bf
       0.08937142618091896 -0.17914631011881887
000270 ac db af 51 61 c5 88 bf 43 6a 49 3b 17 e5 92 3f
       -0.012095222764384982 0.018452036851480235
000280 16 34 94 f0 d7 2f ad 3f 87 4d af 1b e1 19 b1 3f
       0.057005642049354474 0.06680113721750135
000290 64 ec 78 6f 6a 02 bb bf c8 8f 1b ec ea 58 ba bf
       -0.10550561162465183 -0.10291927589747651
0002a0 95 be a5 d7 bd 37 c2 3f 90 66 e2 0e 34 e1 77 3f
       0.1423260977712643 0.005830005027883126
0002b0 4e 08 c0 f8 f9 ea 76 bf f5 bb 3b d7 12 9b 93 bf
       -0.005595184757114137 -0.019146246325302447
0002c0 c5 d0 ff 67 bf 18 b2 bf f1 5c b8 d9 d9 89 aa 3f
       -0.07069011963887124 0.051832969500702826
0002d0 8f 14 7b ae 50 53 a0 3f c9 8d fa 26 34 4e 8c 3f
       0.03188564424412121 0.013821036757980647
0002e0 82 a3 16 3c f4 0c b8 bf 70 02 39 b8 3a 9b 98 3f
       -0.0939476629925036 0.02402965306669319
0002f0 c0 e2 18 05 ee 79 bc 3f 0f 79 fd 0c 35 d7 b1 bf
       0.11123550056880571 -0.06969005171911057
000300 49 68 16 ce 38 91 a8 bf 3e c2 9a 0e 09 74 b9 3f
       -0.04798295512883095 0.09942680937343426
000310 be b2 18 f8 96 3f b1 bf e0 ad 4f a2 d9 7a af 3f
       -0.06737655217211633 0.06148414713228667
000320 fb 51 24 09 b5 8f ac bf 6e b1 1e 65 4a aa 90 3f
       -0.05578389870257535 0.016274607107037146
000330 11 c5 4c 84 af c3 b5 bf c5 c0 6f 2e 5f 34 a7 3f
       -0.08501717548348987 0.04532144014217602
000340 a3 65 3d ff 08 51 76 3f 01 68 90 5b c6 94 b8 3f
       0.005448374886179694 0.09602012381984083
000350 d5 31 4c 29 51 04 8a 3f ef 1e 70 cc f3 77 b5 bf
       0.012703546593478979 -0.08386157742654253
000360 d1 bd 18 2e c8 d7 b5 bf 98 80 6e 5b af 81 71 3f
       -0.08532382131010442 0.0042740678681242525
000370 50 b0 f6 ed 67 4d c2 3f 0d c2 e6 e0 d1 ce 9e 3f
       0.142987242882898 0.030085830070392606
000380 06 c5 2c 2c 75 b8 b9 bf f5 b2 63 2d 0e 68 b7 bf
       -0.10047085121620478 -0.09143150909558158
000390 2d 85 9a 48 ed f6 58 3f 60 cc c2 db b0 ea cb 3f
       0.0015237157080395067 0.21809969645036897
0003a0 6c 4e a9 79 ff 27 aa bf 1c 1a 81 ae e6 07 c1 bf
       -0.05108641014217316 -0.13305362244337082
0003b0 ec 8d a5 cb 12 bc 8d bf e7 aa fd 35 f9 5d 85 3f
       -0.014518877830318432 0.010433146438761877
0003c0 d2 83 5c 22 2e 4f bd 3f ac ad df 7a 1b e1 78 3f
       0.11448944414998088 0.006074054092077768
0003d0 f6 1d d9 6d f5 5e a6 bf 62 58 f7 71 ad de b4 bf
       -0.04369322744292596 -0.08152278931024307
0003e0 48 45 7a 4b c2 66 85 bf 05 5f ce 1e c9 51 c1 3f
       -0.010449903419870524 0.1353083992405503
0003f0 ac 5d 8a 37 4b 49 78 3f 44 fe 38 8b 0c ea a3 bf
       0.00592927343009057 -0.038895027155828404
000400 45 6b dd c8 ca 1e 5b bf 4b 1e 0c 62 18 76 ae bf
       -0.0016552906340254342 -0.05949474522463712
000410 2c ba a3 d0 5a 5f ad bf 64 12 ce 9f e4 1a c2 3f
       -0.05736812397832511 0.14144571116425475
000420 8e f3 1a 46 42 ec 9e 3f 40 9f ba 8c db 59 92 bf
       0.030198131111990593 -0.01792090460244755
000430 cf 98 d0 f0 10 2d bb bf 66 c1 4e 73 26 92 a1 bf
       -0.10615640525120117 -0.03431816251338908
000440 48 fd f3 11 d1 fc b9 3f 27 3b cb f9 3f bf b2 3f
       0.10151392639453605 0.0732307419632262
000450 0b d2 24 5a a1 73 85 bf 8f 58 77 d0 dc df c1 bf
       -0.010474453509780287 -0.13964424304021292
000460 f3 1f 76 f8 25 f4 a2 bf 42 7c 27 c7 43 57 ba 3f
       -0.0370189538762701 0.10289405452884728
000470 29 1a 50 39 e7 3b b5 3f d7 cf e5 8f 45 52 9f 3f
       0.08294530057182982 0.030587279231852307
000480 e5 55 35 91 b2 67 c7 bf 58 6f a2 09 d3 07 92 3f
       -0.18285209741831845 0.017607972586673654
000490 a8 c3 96 ab 14 dc 9e 3f bb cd 7d c3 77 e7 ad 3f
       0.030136416409451222 0.05840658437127951
0004a0 c4 83 1d c2 26 19 a6 3f 63 8e c9 33 c0 09 c2 bf
       0.04316063994952615 -0.140922570502073
0004b0 aa 7c e4 1d cc 62 b7 3f 2b d0 c7 04 34 ab b2 bf
       0.09135127763555553 -0.0729248534842674
0004c0 4a 4e e2 5a 63 ef ae 3f bd fe d9 da 86 07 b2 bf
       0.06042013630317607 -0.07042734950118308
0004d0 23 67 2f 95 3b 9c c9 3f 76 46 9d 9e 7c 80 4d bf
       0.20008034500534064 -0.0009003265852049597
0004e0 0f 4a 1e 4f 31 be a5 bf cc 19 82 53 46 e1 a7 3f
       -0.042466679485318896 0.04664058465373308
0004f0 cd ff 8a b8 a5 ce b0 3f db 74 fd 3c b6 4c b7 bf
       0.06565318828052043 -0.09101428021445505
000500 8f e5 28 ba a8 10 b4 bf b0 d1 f3 76 de 3e ac bf
       -0.07837919754901733 -0.05516715242439163
000510 1f 48 96 d2 4d 5c b4 bf 3a 58 10 b3 24 d9 ad 3f
       -0.0795334471825133 0.058297297342662494
000520 4c 5a ae c1 b1 72 aa 3f 17 1b 2a c2 2f 65 b8 3f
       0.05165629853506867 0.09529398432105683
000530 e2 4b af 99 d1 cb 91 3f 01 b9 4d 18 a4 41 b4 bf
       0.0173790693332413 -0.07912660210942947
000540 b3 25 72 68 c5 7d c5 3f 93 da 11 15 db c9 bc bf
       0.16790073013207304 -0.11245507492444977
000550 49 9c 93 3b 7c ec 8a 3f 7d 34 81 c7 b2 6c c7 bf
       0.013146372383245135 -0.1830047105926588
000560 b1 1a 67 6a bf 42 a8 bf 9c 81 5f 1d 86 cf b0 3f
       -0.047384244669549054 0.06566656319728853
000570 b0 85 ea b0 92 f4 a4 bf 3a 1a cd 87 bb 99 c3 3f
       -0.0409284440004386 0.15312904482762396
000580 9e 6e cd 6c 03 53 75 bf ea 71 12 c2 1c 18 9e 3f
       -0.005206120852416922 0.029388856263368547
000590 88 42 6a c9 95 bf b7 3f 45 ba 53 b9 23 11 b6 3f
       0.09276710669861121 0.08619902872644854
0005a0 5e f2 27 4c 62 ac 84 bf 02 ce 6c d2 27 b9 d1 bf
       -0.010094421338174783 -0.2769259982044049
0005b0 21 8a 53 b6 c9 68 bc bf f6 49 53 a7 37 4f b5 3f
       -0.11097393704725579 0.08324001154986846
0005c0 fa c4 eb 14 a6 b8 b0 3f 9a b5 19 ea 06 49 a6 bf
       0.06531751642957664 -0.04352590186759216
0005d0 03 31 94 71 23 79 68 bf eb 67 16 ad c0 17 c7 3f
       -0.002987450815117866 0.1804123730806276
0005e0 85 d6 7b 5f 6b 81 b3 3f 9c 61 d6 2b c5 c2 af bf
       0.07619353371759459 -0.06203285369992104
0005f0 56 af 0b af f5 85 7d 3f dc 55 0c bd e5 0b bc bf
       0.007207832052454529 -0.10955654015955169
000600 9f 20 80 41 c9 c6 bd bf 3b 60 aa bd 0d 77 ba bf
       -0.1163144860184979 -0.10337911491876721
000610 9b b1 8d 6f ef a6 b2 3f 80 b5 41 ed 21 ab af 3f
       0.0728597304675475 0.061852512561794804
000620 e8 e6 67 f0 65 68 a2 3f 3a 12 49 1e 57 e7 9d 3f
       0.035952745052737545 0.029202805732227534
000630 53 9f 32 7e 51 02 c0 3f 9d 61 b0 c5 7b 83 b4 3f
       0.12507074987410735 0.08013127876654953
000640 05 b0 69 10 13 5e c0 bf b4 1c 4a bb 52 6e 88 3f
       -0.12787092496307664 0.011929174748060191
000650 91 05 96 cc a8 3c b9 bf d7 0e d7 84 34 5b a5 bf
       -0.09858183855796755 -0.04171146508772743
000660 b0 2b 4d 34 70 f9 bf 3f 46 82 1c d3 9c 28 b3 3f
       0.12489987637415711 0.07483844904027945
000670 d2 1f 67 a1 7d 9c b0 3f 3a 5a 17 e1 8a 12 b0 3f
       0.06488785925387155 0.06278293605223775
000680 7b 0c 14 9a 78 cb c6 3f 1d 8b de 87 da 04 c2 3f
       0.1780844452224278 0.14077312120669996
000690 f2 60 02 1e 36 4c ab 3f c0 3b ec 6b 84 57 8d 3f
       0.053315821803325295 0.014327082198659968
0006a0 02 d8 59 08 e8 47 ae 3f 85 43 cf 0c c9 4e a1 3f
       0.05914235212269149 0.03380420953147393
0006b0 02 96 29 bb ca 03 c1 3f e8 f9 b1 32 12 0d a1 bf
       0.13292822016516942 -0.033302849472409524
0006c0 1c 86 6d 1c e8 2b c4 3f 5d 9a cf df 2a 6d 8e 3f
       0.15758992565228958 0.014856657939117552
0006d0 2c e5 08 8a c5 7c b5 3f 5a 87 42 42 0a fe cc 3f
       0.08393511409748972 0.2265026877913055
0006e0 15 fc b8 e0 b7 48 90 bf 73 e8 37 ba 34 ec c9 3f
       -0.01590239819620017 0.20252093403525215
0006f0 75 f1 23 fe fd ca b0 3f bb ed 52 46 37 6f 67 bf
       0.0655974145374268 -0.002860649069217761
000700 27 ae 7f 8b 23 9e c1 3f cd 2e de 35 2e ee a9 3f
       0.1376385146280523 0.05064529807631644
000710 db 41 5d 48 ed 94 a3 3f 8d ff 8e 5a 48 34 b1 bf
       0.03824559696534254 -0.0672040196504879
000720 77 6a 27 24 e5 46 69 bf 57 7a b4 97 17 af a2 3f
       -0.0030855632223681334 0.036492097157169105
000730 7c e5 1c 8d 62 c7 c0 3f ad de f0 c6 13 95 b3 bf
       0.13108474626805477 -0.07649348837810051
000740 a4 1b 4b c1 78 72 b6 3f 8f ed ae 87 72 b1 83 bf
       0.08768419951512257 -0.00961579777309998
000750 60 57 03 93 f3 f3 94 bf af 25 26 d6 39 42 96 3f
       -0.02046185097500286 0.021737006850832404
000760 32 1e af 3e e4 f2 a4 3f 6b 79 7a 35 5a f1 b0 3f
       0.04091561570345127 0.06618274503350612
000770 b7 54 17 89 2e 4b b4 bf ac e1 c9 bd c2 93 64 3f
       -0.0792721829123647 0.0025118640463086175
000780 1c 3f 21 e1 eb 81 93 3f e4 a9 8b 8a c4 54 bc 3f
       0.01905029832442927 0.11066845304927814
000790 20 ea 1d 20 a3 d5 c0 3f 7a 2b 6f d9 cd 6c ae 3f
       0.13151969021039722 0.0594238593981435
0007a0 28 eb e6 89 4c 51 aa 3f 91 2e 53 30 a3 27 b4 3f
       0.05140151198744142 0.07872981958206028
0007b0 4e 3a a8 c6 ad 46 a0 3f e7 c8 96 82 88 70 ab 3f
       0.03178923654569542 0.05359293550590554
0007c0 26 84 3c 2b 43 fa a1 bf 9e 35 52 ba da 66 65 3f
       -0.0351124754217909 0.0026125213649439
0007d0 f8 57 8b 1e 25 88 b7 bf fe 41 2d 23 e3 69 bc bf
       -0.09192115779600829 -0.11099071129616075
0007e0 60 ab 9e d6 ec 58 9e bf f4 08 e1 db 1d 7a ab bf
       -0.029636097525933436 -0.05366605099745128
0007f0 98 fc d1 03 5f c0 98 3f 28 44 22 ea cd 94 bc bf
       0.024171337707681845 -0.11164557424696453

firstConv.1.weight f8 [16]
000000 9e f9 25 72 f3 c9 f0 3f 90 c9 08 96 cf 71 f7 3f
       1.0493044337195907 1.4652858601299137
000010 76 75 57 26 97 b3 f4 3f 39 ef 2f 70 7e 50 f5 3f
       1.2938453195305022 1.3321518308939189
000020 ba 71 08 34 0c 78 f0 3f 30 a2 dd 56 90 4e f1 3f
       1.0293085129297723 1.0816806214517207
000030 79 bb 84 fd e2 2c f3 3f 17 39 cc 43 65 41 f5 3f
       1.1984586623254627 1.328465714297243
000040 f0 3a de 04 56 ef f1 3f ee 52 52 87 10 98 f3 3f
       1.1209316435012475 1.2246251379012238
000050 6f d7 74 03 b5 61 f1 3f 02 47 ab 8b 5d e6 f0 3f
       1.0863542685524086 1.056241555769191
000060 b6 5c 58 ee c0 73 f1 3f 44 6d fb 7d 63 ea f0 3f
       1.0907601652486796 1.0572237893273533
000070 6c 8d 22 fc b4 ac f1 3f 16 c5 66 94 88 84 f2 3f
       1.1046647881529124 1.1573568150454938

firstConv.1.bias f8 [16]
000000 c5 14 94 61 b9 f5 29 bd 9d ef 51 b1 9d 3a 5d 3d
       -4.6113974758030684e-14 4.153686276564222e-13
000010 40 61 77 75 d6 93 81 bd 10 9f f5 69 dc c6 70 bd
       -1.9983293819220886e-12 -9.53650712135051e-13
000020 b6 8e c7 54 26 b1 47 bd 3d 4c cb a1 ba be 56 bd
       -1.6834172198256872e-13 -3.2322639183416005e-13
000030 f3 62 45 a8 a8 70 5d bd 32 bf e6 18 33 e6 86 bd
       -4.1836860740287037e-13 -2.603339587776486e-12
000040 0b 6d 36 c2 39 8b 2e 3d da c9 a2 e6 4d 6d 50 3d
       5.4256776985805426e-14 2.334412829970952e-13
000050 c0 c1 d3 91 5b f8 6a bd 42 4b ad ea 45 c0 46 3d
       -7.665376882011304e-13 1.616560527699586e-13
000060 c6 68 89 cc b8 28 5f bd 7f 40 9b b9 a2 c3 62 3d
       -4.427970141098303e-13 5.333106894578014e-13
000070 17 bd 2d 08 fd 34 35 bd 67 de 68 52 4e 9a 68 bd
       -7.534234911019882e-14 -6.992524276240717e-13

firstConv.1.running_mean f8 [16]
000000 72 2c 6b 9e e0 97 a8 bf 2c c0 fb 2c b7 4c 44 bf
       -0.04803373273679136 -0.0006194967663457666
000010 a2 06 06 94 ac 32 47 bf c6 49 2f 1c b7 cb 6e 3f
       -0.0007079451243472044 0.0037592483872483677
000020 6a 1e 77 b2 61 df b2 bf 33 b5 1b 27 7c 04 b3 3f
       -0.0737210331636732 0.07428718523779736
000030 06 93 78 16 78 f0 20 bf c3 18 14 66 76 02 56 3f
       -0.00012923684993029083 0.0013433605420814377
000040 9c a4 9f 3f 19 3f 9d bf 3f d3 df 5c 65 83 57 3f
       -0.028561014660145476 0.0014351358290671382
000050 14 dc 1e 4e 24 17 7d bf 55 6a 96 6f 8d 47 a4 3f
       -0.007102147881531646 0.039608402129677124
000060 49 a9 2e 3e c0 7b 9e bf a2 17 de 53 7c 2c b5 bf
       -0.029768947406105615 -0.08271004722163736
000070 40 ff fa 79 49 42 7b bf 3c 7a ba 4b 7c 12 76 bf
       -0.0066550131011238745 -0.005388722925685981

firstConv.1.running_var f8 [16]
000000 31 31 9a 26 bb 59 4f 40 9b 3e 3b 6d 5d 88 f5 3f
       62.701023888863695 1.34579222363019
000010 0c 92 52 3b 77 f7 01 40 6e 59 ef 30 4b 70 26 40
       2.2458328852246776 11.219323662965248
000020 07 d5 54 71 1c 11 58 40 1a 3f 37 e8 41 5e 44 40
       96.26736100468052 40.73638632485945
000030 8e 0f eb 28 14 3b 00 40 87 ab e5 05 49 64 05 40
       2.0288470455870486 2.673967405387376
000040 d4 47 73 c1 c9 9d 31 40 2e ac 1a 6b 4a f0 2d 40
       17.616359797138855 14.969317767148905
000050 82 73 15 0f e5 19 3a 40 af 2e 77 98 5f 83 2f 40
       26.10115141175948 15.756588711308124
000060 a4 2c ee 13 8f fa 40 40 86 0b ea d4 1e 98 50 40
       33.957491389556964 66.37688181739767
000070 f3 37 70 92 01 ef 29 40 e4 ce 94 0b 97 28 17 40
       12.966808868597559 5.789638691861658

depthwiseConv.0.weight f8 [32, 1, 2, 1]
000000 4a ff 3b f8 c5 a5 ce bf af 9b 70 1f ee 0a d5 3f
       -0.23943400021380007 0.328792124464992
000010 f2 5b 6e c4 fc c9 db 3f 58 46 59 93 82 53 b6 3f
       0.4342033308288925 0.08721176240330786
000020 38 5b 72 08 ff 37 c4 3f bf 1e c5 92 4f 7e ee bf
       0.1579588690990137 -0.9529188028909273
000030 c1 9c 13 27 97 7b 91 bf 5a d2 f4 d3 72 b2 b7 3f
       -0.017073022613570247 0.09256665873255923
000040 27 dc 7d be 89 15 e5 bf 8e 78 78 1b 45 5e c1 3f
       -0.658879158071504 0.13568939057671908
000050 76 e2 e9 8e 75 dc b4 bf 7f bf 73 62 af 79 df 3f
       -0.08148894061185694 0.49180206884829397
000060 7e 62 3f ba 49 59 c7 3f 13 0a 82 e1 66 19 e3 bf
       0.1824123534595578 -0.5968508152439561
000070 68 f8 ad 73 6c d6 e0 bf 12 fe 90 32 81 96 c8 3f
       -0.5261747607580789 0.19209303826390617
000080 02 d9 66 38 13 84 d3 bf 94 14 fa 55 39 d8 e0 3f
       -0.3049362231062248 0.5263945273624295
000090 1e 80 ff a2 77 9f e5 3f 86 26 c9 c5 ac 61 7d bf
       0.6757162269168508 -0.007173228161784123
0000a0 45 24 7d d3 a4 7a b4 bf 50 00 49 dd 82 7d d6 3f
       -0.07999639666844967 0.3514105950343991
0000b0 0f dc 71 3b 01 06 dc 3f 59 bf 1e 74 7c 7d e7 bf
       0.43786650471832983 -0.7340681331606717
0000c0 26 b3 f9 03 43 3c b9 3f c1 c2 98 ee bb a1 e1 bf
       0.09857577178054253 -0.5509929332821103
0000d0 6f f1 41 46 47 61 e8 bf 31 50 6e 41 af 63 99 3f
       -0.7618748066156921 0.024794329041086086
0000e0 ba 49 33 a8 b8 43 c7 3f 34 ee e2 00 e5 58 e0 bf
       0.18175419056804093 -0.5108513848603651
0000f0 a4 87 c6 c8 e1 dd b9 3f 10 0d bc fe 26 da d7 bf
       0.10104190017457754 -0.37268996120856546
000100 d0 42 76 96 5a f5 d1 3f 75 af 1d 65 ef 81 d6 bf
       0.2806002110819863 -0.3516806113682301
000110 6a b2 0d 24 a4 6d d6 bf ed b8 d0 34 51 44 e1 3f
       -0.3504419662556645 0.5395895034360173
000120 10 d9 a1 85 38 6c b9 3f 34 12 2b e6 c1 22 e4 bf
       0.09930756819253284 -0.6292428489183011
000130 0c 20 13 7e b7 99 c9 3f 04 1e 77 59 c9 4f c4 bf
       0.2000035634612235 -0.1586848913996023
000140 c7 c9 bf b7 2c ff df 3f 91 77 ec 8e 7e 62 dc bf
       0.499949626390983 -0.44351161916153453
000150 e8 8d bc 19 06 86 e1 3f 45 90 83 21 c8 36 e2 bf
       0.5476103308359912 -0.5691872267311814
000160 30 ad 02 d5 9a b5 db bf 43 4d 70 56 96 4d d4 3f
       -0.43295927812387713 0.31723555032040823
000170 25 b4 05 99 6e f6 e2 3f c1 89 b2 12 ea a8 da bf
       0.59258203398861 -0.41655971361083394
000180 a3 4e df 29 c2 7b b5 3f ed 73 57 b1 2e 38 c8 bf
       0.08391965410492701 -0.18921455058344297
000190 70 8b 84 a3 14 74 e7 bf 30 23 9d 05 b9 ff bf bf
       -0.7329199975687128 -0.12499576937728984
0001a0 ee 62 6e 12 0a c0 d5 3f 30 d1 18 22 7f 3a e2 bf
       0.3398461513511809 -0.5696406999545953
0001b0 d6 8f 52 84 a9 1c e0 3f 57 3a e9 c9 8b 1c d5 3f
       0.5034988006996126 0.32986731260181074
0001c0 d0 a1 07 75 2c e8 e1 bf 61 b7 58 f4 7d 0f e2 3f
       -0.5595915113199741 0.564391114463188
0001d0 30 63 c0 72 96 e5 e1 bf a7 ce 45 5e 7c 42 e3 bf
       -0.5592758408775804 -0.6018659440291757
0001e0 ca 01 5d 8c 78 ea e3 3f d4 d0 1f a9 ab b9 99 3f
       0.6223719350310202 0.025122339437033528
0001f0 69 75 0d 4c ba 4a b4 bf 83 f0 cf ae 64 81 db 3f
       -0.0792652545619227 0.42977253982076763

depthwiseConv.1.weight f8 [32]
000000 94 e8 09 4d dd 6b f1 3f f0 93 24 6d 36 75 ef 3f
       1.0888340958904665 0.9830581790635033
000010 fc 47 8f 3d d4 db f6 3f dd 7e bf d9 25 16 f8 3f
       1.428669205157802 1.505407190874329
000020 73 da 77 e9 f5 0d f7 3f 2c 93 13 a2 80 4d f8 3f
       1.4409083480692544 1.5189215022193805
000030 2c b6 15 8e 1c 16 f7 3f 64 86 04 fc 79 67 f7 3f
       1.4428983259380272 1.4627628178062873
000040 7c fb 1a b7 89 8c f1 3f b2 c3 26 06 9f 15 f0 3f
       1.0968110230021173 1.0052786102571472
000050 26 aa fd 64 2a 0f f2 3f 81 d8 fe fc 6e 9b f2 3f
       1.1287025399166253 1.1629476435314532
000060 c8 4f 6a 6d 50 d0 f8 3f 86 08 d0 a5 ed 6a f5 3f
       1.550857951548993 1.3386055447631704
000070 f8 b3 0f 01 d8 49 fa 3f 74 be 51 22 27 cd f9 3f
       1.6430282632311428 1.6125861492727411
000080 b5 c3 f9 96 b8 ed f2 3f 65 de 9e e0 48 3d f4 3f
       1.183037366627315 1.2649620794526524
000090 d4 b4 09 c6 8e 63 f5 3f 06 e3 34 6b ac c8 f4 3f
       1.336806081376655 1.2989925563580882
0000a0 ab c7 b1 d6 26 05 f3 3f 7b 9d ce 16 d8 b0 f3 3f
       1.1887577425481861 1.2306748286153766
0000b0 14 1f 15 80 1f 4d f2 3f 5b 9c f2 89 44 fc f1 3f
       1.1438288691733236 1.1240888012487378
0000c0 19 ce 9c b0 cd 2c f2 3f 43 a5 d6 2f 8a 05 ef 3f
       1.1359383486677699 0.969426244196406
0000d0 d5 37 cd e0 94 68 f3 3f 64 1f ca b0 d0 85 f0 3f
       1.2130326062501713 1.0326697259751763
0000e0 05 f4 d0 a8 40 48 f6 3f 85 cb b0 63 3e 63 f5 3f
       1.3926397890456894 1.3367294210590626
0000f0 d4 5d 14 06 1d 2c f5 3f 15 35 71 b6 9a 5f f7 3f
       1.3232698667032894 1.4608409048699447

depthwiseConv.1.bias f8 [32]
000000 6f 6e 20 7b 4a 34 b3 bf 02 cc 73 db b0 f2 c8 bf
       -0.07501664644262872 -0.1949063369316662
000010 a2 64 75 6f 07 23 d3 bf 81 17 94 9d d2 b0 d5 bf
       -0.2990130032026831 -0.3389174021580104
000020 ec bd f7 15 c1 08 d7 bf 06 53 30 ff 0f c1 d8 bf
       -0.3599093164948204 -0.38678359909799587
000030 b0 f2 00 35 89 58 e0 bf f5 4b 9a 94 cf 4d df bf
       -0.5108076129177643 -0.4891241980741932
000040 e7 b5 7f 05 dd 3b c1 bf 37 a6 7c cf a6 38 c9 bf
       -0.1346393849229763 -0.19704136973568762
000050 43 c1 5b 36 4a 64 d3 bf ad d6 bb 0e fa 50 c2 bf
       -0.30299620922507503 -0.1430962154333221
000060 f9 76 61 43 51 e2 d7 bf d9 43 2e a0 5d 1b d2 bf
       -0.3731883199705944 -0.2829202713265296
000070 63 25 21 74 26 47 de bf 46 61 0e bd 55 ad dd bf
       -0.4730926641537591 -0.4637045236827543
000080 3f 8d 94 f7 94 99 d0 bf 70 31 bc 41 1f 84 d9 bf
       -0.25937389543306105 -0.39868909282156206
000090 20 e4 fc c4 2d 07 d4 bf 40 c5 9d 74 1b 62 d2 bf
       -0.3129381583890467 -0.28723799122152016
0000a0 6d 7c 42 a8 c8 37 c0 bf 48 80 6e df 7e 15 bb bf
       -0.12670238700681882 -0.1057967467772879
0000b0 e6 ab 3d f5 6f 7c d1 bf 9f 63 2b c0 3d cf d5 bf
       -0.2732200522356706 -0.3407739998488583
0000c0 f2 3f b2 d4 65 21 d8 bf 54 0a e9 80 f9 d6 c2 bf
       -0.377038438521594 -0.14718550486039084
0000d0 11 42 ac bc 5b 5e c6 bf c7 b6 fc 34 7f 62 d6 bf
       -0.17475458824675674 -0.34976177382018786
0000e0 2a bb 8c f5 c1 59 d5 bf 75 f1 a0 93 e6 7f ca bf
       -0.3336033723780242 -0.20702821930343487
0000f0 45 58 3e 28 11 bc ca bf 70 25 a1 24 d2 20 d3 bf
       -0.2088643499852784 -0.2988782270154706

depthwiseConv.1.running_mean f8 [32]
000000 7c d9 4e cf f8 1d 56 bf b3 da 25 77 70 f2 4a 3f
       -0.0013499192984745825 0.0008223580501141775
000010 15 c2 25 e9 97 c7 0e 3f ec 17 31 1f 63 4d d8 be
       5.870754570736298e-05 -5.794118339846524e-06
000020 09 b2 f7 cf d9 d6 d6 be 71 ed d5 62 c3 7a d0 be
       -5.445304168000012e-06 -3.9290294301345955e-06
000030 2a 72 29 36 49 bd fd be 02 17 7e e1 5d 69 fb 3e
       -2.836170041074969e-05 2.614172817019031e-05
000040 1b 2f 09 fd 8a 4e 64 bf 86 c8 18 56 ad ae 60 3f
       -0.002478858434448739 0.002036417529574899
000050 ba 37 88 6a 17 3f 57 3f b4 37 03 1b 4e 93 6f bf
       0.0014188507722141378 -0.0038544202326198044
000060 0c 9c 2c 54 c4 1d f3 be a3 61 b4 17 b7 26 f7 3e
       -1.82307023905114e-05 2.2078734656623443e-05
000070 95 3c f1 93 46 50 2a bf fd 1d e9 c5 82 ff 21 bf
       -0.00020075665995242646 -0.00013731452323127716
000080 76 92 8c 67 02 82 33 3f 84 12 cb f4 d7 75 3b bf
       0.00029766615584695484 -0.00041901132935277135
000090 0a 56 e4 be e3 94 2c bf cc 6e 5c 48 ca 24 1c bf
       -0.00021806030367403666 -0.00010735973964098449
0000a0 e7 5c a6 81 43 18 48 3f 06 72 75 2e 85 85 4c 3f
       0.0007353143330871809 0.0008704090404694782
0000b0 99 92 96 dd 2b c5 52 3f aa 90 13 f7 ca 3f 59 bf
       0.0011456421255867987 -0.0015410883027522728
0000c0 be c5 62 bf 88 da 46 3f 58 ca 6d 41 8e 4e 59 bf
       0.0006974380219359406 -0.0015446080412543552
0000d0 e7 3e 07 a5 7c 75 68 3f e1 9d 75 6f 53 a2 42 3f
       0.002985709616247212 0.0005686671637876139
0000e0 5e bd 76 56 e2 fb 37 bf e8 31 8a 9d 53 1a f0 3e
       -0.0003659656126399814 1.5356863374326168e-05
0000f0 28 23 5e cc 6e 83 2a 3f 97 7f d7 a0 77 a3 26 bf
       0.00020228126066637012 -0.00017271838480236994

depthwiseConv.1.running_var f8 [32]
000000 4d 47 96 3d af 93 b1 3f c7 68 34 26 89 31 d1 3f
       0.06865973714436997 0.2686484215825086
000010 89 72 16 d1 f0 8d fc 3f ec 1f fe c3 04 f0 90 3f
       1.7846534888732626 0.01654059835666992
000020 9b 9e c2 00 b5 34 e4 3f 45 ea be f5 8d 9f d7 3f
       0.6314339651916784 0.36911343573197924
000030 ee 44 76 bf b7 7a de 3f b0 4c 2f 2f 5a 54 d3 3f
       0.4762400979753484 0.30202345474135495
000040 06 44 1b 39 a8 b7 c7 3f 49 f2 fc 71 99 17 de 3f
       0.18529227054980896 0.4701903927960172
000050 44 97 09 30 ee 21 be 3f 71 74 79 bb 6c 4e db 3f
       0.1177052371291128 0.4266616659932146
000060 61 f1 e4 07 22 59 d9 3f 79 8f e5 bc 34 af e9 3f
       0.39606524249008684 0.8026374520672866
000070 51 4c 82 a2 62 de d7 3f b3 0e 4a f9 e4 f2 c9 3f
       0.3729483210565308 0.20272504970863778
000080 e7 1e 5d 55 c4 78 b5 3f e8 64 94 7d 8a e1 c8 3f
       0.08387400707317348 0.19438296443767134
000090 60 6b d6 6b 26 dd da 3f bf c8 a9 67 ed 97 9d 3f
       0.4197479298688247 0.02889986939630584
0000a0 f1 54 72 c3 16 76 c4 3f f2 35 47 08 75 5c cc 3f
       0.15985378783503948 0.2215715685291993
0000b0 0a ec 3d 44 0c cf bd 3f 19 6f 29 3b 38 67 cb 3f
       0.11644055048047633 0.21408751381647376
0000c0 a9 a5 bf 4f b3 e4 9c 3f f8 67 4b a3 b8 23 e9 3f
       0.02821617292639692 0.7856105031344205
0000d0 4d 32 cd 94 1d 0d cf 3f ef 18 27 6e e1 e4 e3 3f
       0.24258775487614273 0.6216895247860331
0000e0 c8 97 76 15 ff d4 d0 3f 1e 7b 68 98 37 ca f5 3f
       0.2630002698518834 1.3618694261019253
0000f0 c5 85 20 9a 87 22 e1 3f 03 49 51 cb e7 68 ca 3f
       0.535465050725343 0.20632646014798448

separableConv.0.weight f8 [32, 32, 1, 15]
000000 2a 42 3d ef e8 ef b3 bf 20 68 c4 46 45 c2 90 3f
       -0.07787948456576346 0.01636608356884761
000010 40 5b 4c 91 53 bb 76 3f a4 70 c5 15 87 48 96 bf
       0.005549742160630811 -0.021761046127139708
000020 ce 49 83 93 eb d9 90 3f bf 01 b9 5e 7a 0a 7d 3f
       0.016456299665898837 0.0070900707319769265
000030 20 a5 94 d6 03 2a aa bf fc bd 71 d8 ce 53 96 3f
       -0.05110179895775446 0.02180407711096953
000040 6b 7f d1 6e a4 84 9d bf 0c 8e 11 e9 b9 2f 5a 3f
       -0.02882630277997526 0.001598292878292609
000050 bf f1 00 6a 0f b9 7a bf 64 f2 04 6f d9 51 9e 3f
       -0.006524143420446326 0.029609105492669832
000060 bb 1d c9 e1 4d 76 a1 bf 4a eb 2c da e1 d1 b6 bf
       -0.03410571461841579 -0.08914004875707096
000070 06 b3 31 33 75 e8 b2 3f 3f ab d6 99 65 4a ad 3f
       0.0738595247255028 0.057208228139038024
000080 6d 81 a0 c8 83 c0 a3 3f 8c 0f 76 76 bb 17 7d bf
       0.038578146210286636 -0.007102710987400129
000090 a0 68 b5 48 4b 8f a5 3f 59 60 51 eb 39 34 9a bf
       0.04210887205654612 -0.025589852321303706
0000a0 6d 87 dd 05 9e 88 a4 bf 91 68 7c 47 60 f1 a2 bf
       -0.040104807106003594 -0.03699780342704274
0000b0 35 7b 2a 38 c3 75 a2 3f 6e 20 cf dd a7 f2 b0 bf
       0.03605470715159812 -0.06620263257275535
0000c0 ed 7b ff dd a7 5c 95 3f 09 2a 28 04 1e 76 96 3f
       0.02086126606434029 0.02193495655414249
0000d0 42 8c 45 e2 f0 db 9c bf e0 8d d9 16 21 f7 a6 3f
       -0.028182758150603122 0.04485419658592682
0000e0 ec f3 41 db b1 42 a3 bf 26 da b3 96 ff 36 a7 3f
       -0.03761821557507247 0.04534147944098192
0000f0 d4 66 a3 dd e5 7c 9f 3f c0 49 2e a0 f7 84 9c 3f
       0.030749885227897192 0.02785097994962782
000100 24 6f d0 b2 83 b3 87 3f 51 b4 06 b4 02 db 9d 3f
       0.011572865385509674 0.029155771482397622
000110 b5 47 3b 9a 95 ea 92 bf 98 27 82 8f 0d 38 32 bf
       -0.01847299341063265 -0.000277999220550934
000120 28 ce 7f 95 61 a2 b9 3f 0d 09 ed e2 7c 57 99 3f
       0.10013399028667236 0.02474780211492438
000130 cf 3d 3a c8 75 68 b7 bf b2 e6 3a 7c b7 8d a2 bf
       -0.09143768442503773 -0.03623746291618825
000140 f0 a1 8c aa 41 4a b0 3f a4 2d 01 0f 0d d2 af bf
       0.0636330644016494 -0.06214943702851919
000150 b6 72 93 17 e7 e5 a4 3f 90 e0 af aa 3c 0f ad 3f
       0.04081651842873184 0.05675687392789641
000160 d1 a9 c5 2a ce 0e ab 3f db 8d 03 70 8d 74 86 bf
       0.052847330781179765 -0.010964493733303484
000170 92 33 95 65 f4 4c 8b 3f 35 d1 af 66 5b 0c a8 3f
       0.013330373144208516 0.04696927670002752
000180 35 51 41 6e 5f dc a0 3f 6d 34 7c 3e 39 c5 35 bf
       0.03293131085289006 -0.0003321900135098758
000190 62 61 27 c0 72 ea 7d 3f b1 97 35 6e a5 3f 97 3f
       0.007303665394339328 0.022703728534359594
0001a0 71 f8 ce 5b 12 db 9e bf 86 66 73 05 16 b2 b5 3f
       -0.030132567266030145 0.0847486270244194
0001b0 e0 a5 5f 74 84 27 a2 bf 5c f8 16 7c f8 35 ae bf
       -0.03545774384094691 -0.05900551333205392
0001c0 d9 5e 65 72 82 ff 7c bf b0 d9 84 9d 47 e3 a5 bf
       -0.0070796104031029755 -0.042749631861102144
0001d0 cc 83 a3 45 85 1e a3 bf c4 42 83 27 86 55 bb 3f
       -0.037342228651830206 0.10677374329248851
0001e0 47 f5 37 53 67 48 a0 3f a5 9e fe 33 d8 25 8c bf
       0.03180239573337445 -0.01374405773806526
0001f0 e1 1b ac d4 ba 63 92 bf 08 ff b5 ab ce f6 a1 bf
       -0.017958564024436078 -0.035086115322881695
000200 25 56 57 e2 0e f3 8f bf 3d 63 f0 1b 08 17 a5 bf
       -0.015600315363296488 -0.04119134274532719
000210 58 a8 a7 dc df cc a3 3f 72 49 ff 0f b0 4d 92 bf
       0.038672443089880104 -0.017874480224983676
000220 78 ce b3 8b 53 c9 a6 bf ef 22 9e 7d c9 ec 8a 3f
       -0.0445047481570357 0.013146948000000573
000230 65 bf 92 2e 00 77 94 3f 9e 92 d5 5f 93 93 b2 bf
       0.019985201685528326 -0.07256432618812389
000240 40 37 00 c0 03 52 b0 bf d5 cd 39 18 16 ea a7 bf
       -0.0637514442207392 -0.04670781179165898
000250 80 d7 db c1 28 0a 92 3f bf 7f 79 ec 35 7e a2 3f
       0.017616879303168798 0.03611916076329135
000260 d5 55 c7 e4 1b 6b 4a 3f d5 34 47 0c a2 52 b6 3f
       0.0008062254142326373 0.08719837951430816
000270 a4 29 5e b6 ff 6f 8e 3f be 9c b0 4c 14 2a a1 bf
       0.014862058403896601 -0.03352416454463868
000280 b2 ec a1 3d 27 c1 b8 bf a8 db ec db 94 3d ac 3f
       -0.09669728522014756 0.05515732941278567
000290 fb 00 9f fc 4f da b0 3f 4f 96 ba 57 bd 09 97 bf
       0.0658311836004976 -0.022498091201347766
0002a0 6c 67 0b e6 65 39 ba bf 85 5b 3a 4c ed 08 b1 3f
       -0.10243832460710472 0.06654246436151652
0002b0 f6 74 d7 d0 ac 19 b9 3f c0 36 40 3b 8d 08 b2 bf
       0.09804802035019464 -0.07044298836282348
0002c0 99 a3 9e 5f fc 4f a8 3f 96 6b 3f 5c 9d 66 bc 3f
       0.04748524348480671 0.11094077589170434
0002d0 7d d9 df 40 06 b7 88 bf 13 9e 4f 68 40 83 b0 bf
       -0.012067841391382167 -0.06450274035125174
0002e0 8a a8 08 83 ae 94 83 bf 2c 14 9f c4 f2 f8 a9 3f
       -0.009560931562266246 0.05072744989551156
0002f0 8f 2f 10 7e e0 d8 a9 bf 3d 7e d5 94 ae ee b3 3f
       -0.05048276461465583 0.07786074765817204
000300 97 07 41 13 50 82 92 bf b1 fe 77 78 dd ef a7 bf
       -0.018075228858158345 -0.04675190063062241
000310 04 dc a2 44 27 88 90 bf e3 c7 4f 3c b3 61 8d bf
       -0.01614438396856245 -0.014346504476609517
000320 f4 69 8f 4c e3 11 a0 3f 33 0a 07 c1 0a 35 a0 bf
       0.0313864737469948 -0.03165467840473859
000330 a2 2f 30 54 e1 f9 75 3f e3 dc 5d e1 91 e6 a0 3f
       0.00536525744520225 0.033009108315065004
000340 52 20 ae cf e7 fd b8 bf 00 ab 8e 9c 57 a6 bd bf
       -0.09762429066006575 -0.11581943103980663
000350 af 1d 8b 10 17 d3 90 3f 3f fc 00 91 99 da a9 3f
       0.016430244812708213 0.05049590964380756
000360 7f 35 9f 4d 9b a3 b0 bf f7 d7 b6 2c 85 32 b0 3f
       -0.06499643940988696 0.06327087728172374
000370 6a 23 7f f3 e9 f6 a6 3f c9 05 6f 04 1d a2 ba bf
       0.04485255334254286 -0.10403615339512053
000380 aa c7 e3 4f 9b 30 89 3f c7 35 3a 55 f8 68 89 3f
       0.01229974114946571 0.012407245732243844
000390 e0 09 4b 87 ee 89 b2 bf b9 ad 22 cd e1 6a 91 3f
       -0.07241717150740312 0.017009285111880355
0003a0 65 35 91 1d eb b6 b0 3f 84 5e e0 88 af 9c b5 bf
       0.06529111358505231 -0.08442208377561583
0003b0 00 6d 94 a3 23 2d a2 bf 40 35 7d 34 de 25 a2 3f
       -0.03550063487838351 0.03544515982376106
0003c0 cf 7f c7 5e bb 0a 80 bf 56 20 a6 eb 5a 78 8c bf
       -0.007832969503340252 -0.013901434246477756
0003d0 e0 ab 0b ff ae ce 84 3f fe e4 c2 4a 96 b2 a8 bf
       0.01015984264218689 -0.04823751127828223
0003e0 d8 63 71 f8 2a 4a a2 bf 1a 38 2d 03 68 27 a4 3f
       -0.035722105815416405 0.03936314619805632
0003f0 3c f7 5b dd 5e f1 8a bf 96 e0 ce b7 a5 da 88 bf
       -0.01315569031748575 -0.012135786697271816
000400 2d 71 a3 40 08 39 ad bf 63 61 89 df b4 4a 6b bf
       -0.05707574643176581 -0.003331521289777027
000410 7d 36 b0 64 dc b4 86 3f e8 a5 03 75 d6 c5 93 bf
       0.0110871523120537 -0.01930937852094941
000420 27 69 df 9b 5b ad 83 3f c1 48 d6 ca 65 b8 9e 3f
       0.009607997602803465 0.030000296120825668
000430 ea 4d 97 ef e0 0e ac bf 89 2d 01 da 3c e3 9f 3f
       -0.054801015135719514 0.031140280538506402
000440 7b 00 05 9b a3 7f 80 3f 20 63 3a fa a8 26 91 3f
       0.008055952232666854 0.01674903895636526
000450 8a 14 39 f5 68 d8 9e bf b6 1a 50 75 ea cb 8d 3f
       -0.030122413603994626 0.01454909487257559
000460 43 cc fe dc 16 3c 73 bf 8e 86 28 1c a4 43 b2 bf
       -0.004695977506275875 -0.07134462058504651
000470 35 61 1b 71 f1 1a a3 3f 37 9b e6 50 c2 fb a6 3f
       0.037314934784890154 0.04488951909598032
000480 09 f7 ec 67 68 5d a4 3f c4 5d 01 66 70 44 a1 3f
       0.039775145231471916 0.03372527356321656
000490 6f 85 41 d3 ca 93 88 bf 67 fd 5f e4 cc a8 7c bf
       -0.012000641414661143 -0.0069969180676702
0004a0 d6 8c aa c1 78 04 98 3f 3e f4 5a 5c db 48 89 bf
       0.02345455820126293 -0.012345994716605909
0004b0 ac c4 e1 f8 95 1f a8 bf a8 bb 0f 82 f7 6d 8b 3f
       -0.04711598075017184 0.0133933388296706
0004c0 41 82 33 ed ad c2 a3 bf 05 d4 1e dd d6 89 9a bf
       -0.03859466095469034 -0.02591644024478869
0004d0 d8 9c 87 5a a9 3f 68 bf 64 28 ea 8a ce 18 56 bf
       -0.002960043686687546 -0.0013486878412174658
0004e0 57 a0 c5 e8 5b 0b a7 bf cc 1d 95 8b c1 89 9d bf
       -0.04500853744940574 -0.028845810074271047
0004f0 57 e1 11 2d df db 93 3f 0b 90 e0 cd 64 6d 69 3f
       0.01939343178352834 0.0031039208252128295
000500 59 da c3 85 1a 83 94 bf 30 61 61 a0 39 e2 99 3f
       -0.020031370558138615 0.025277042783586612
000510 b2 60 6f eb 58 9e 8f 3f 30 5a ad b4 17 62 9f bf
       0.015438742337139242 -0.03064763107553342
000520 4b 9f fb 1a c6 58 aa bf 2f 3e 7f d9 cd 76 93 bf
       -0.05145854071980568 -0.019007889175382594
000530 45 0c dd 62 c6 bb 62 3f 98 3b b1 19 3a 21 8f bf
       0.0022868036966499383 -0.01520009413630223
000540 69 32 f8 38 73 b4 b0 3f 3d a8 09 b4 bf d3 b5 bf
       0.065253449829649 -0.08526228089763861
000550 b7 f2 2f bf 7a ba a0 bf 10 90 4b 76 50 53 a4 3f
       -0.03267272552327454 0.0396981377032547
000560 dd 74 ae 01 d2 93 92 3f 08 c6 e6 bb f8 98 ae bf
       0.01814201483977206 -0.059760830819310995
000570 09 a1 4a 1a 89 87 af bf 50 a1 b8 ca 59 73 7f 3f
       -0.06158092924062159 0.007678366422205166
000580 f5 d5 99 aa e2 58 7f 3f f2 f1 55 e8 13 c6 8e bf
       0.007653127113021342 -0.015026240852187709
000590 f5 f0 46 90 9a 70 a3 3f 65 20 46 d1 07 26 75 bf
       0.03796847354121439 -0.005163221871392042
0005a0 21 27 ae 53 86 bd b0 3f 27 f2 41 5a 9b 28 b2 3f
       0.06539191763854692 0.07093211129717557
0005b0 97 4a 7a d5 1d ad 80 bf 19 da 46 1a d8 c5 74 bf
       -0.00814269359333268 -0.005071491385413762
0005c0 ef c8 96 48 2a cd 9a 3f d5 25 a9 cb 5f 24 95 3f
       0.02617326801345937 0.020646569066490834
0005d0 5e d8 5c 1d c6 4d a2 bf 8d 4e 93 64 92 27 cb bf
       -0.03574961765700445 -0.21214513693722772
0005e0 88 a2 ef 78 d9 84 a1 3f be 3a a8 06 1e 3c bb 3f
       0.03421668626089508 0.10638606703308093
0005f0 3e eb 3f 90 35 6e 84 bf f6 6a c2 8d 16 4c a6 bf
       -0.009975832428599337 -0.043549256138438894
000600 83 d3 37 9e 0e 18 b4 3f 52 55 d0 83 64 7b a8 3f
       0.0784920822405422 0.04781641110472869
000610 8b 26 2b a9 ef c7 a0 bf ff 91 48 a4 63 33 98 bf
       -0.0327753919605814 -0.02363353433806203
000620 bb cd d1 75 08 ca a7 3f ec db a7 6f ca 92 b0 bf
       0.0464632648298919 -0.06473984933823801
000630 40 49 4f b7 49 be a2 bf 1e 17 f4 6c ad 3a 97 bf
       -0.036608031870530855 -0.022684774184219873
000640 94 02 39 b3 03 8d 74 bf 49 ee 0d 3a 78 76 95 bf
       -0.00501729436251765 -0.020959738295898842
000650 7d d8 24 34 3a 5a b4 bf cd 93 b9 26 20 e6 95 bf
       -0.07950176022572637 -0.02138567196233847
000660 76 45 79 67 a8 ea b4 3f 70 26 41 c5 aa ca be 3f
       0.0817055943127992 0.12027995410712733
000670 19 40 28 4c 27 8c a9 bf aa eb fc d0 c6 05 bd bf
       -0.04989741139081633 -0.11336939432378182
000680 8e 46 a7 05 30 ec 9b bf c7 25 f1 4a b1 5f 85 3f
       -0.027268171639497178 0.010436425303981601
000690 5d 34 85 52 d0 12 85 bf 84 51 a8 78 2f 4c 85 bf
       -0.010289790647812486 -0.01039921843497705
0006a0 07 24 b9 48 1f 5b 9a 3f 61 9c 26 66 2f 55 a2 3f
       0.0257382286202166 0.03580616113622948
0006b0 07 dc da 76 4f 4e bb bf 0c a0 ec ea e4 cd b1 3f
       -0.10666367198687975 0.06954794631440125
0006c0 f0 46 87 ec cd bf ba bf 46 23 84 b5 2a 04 ae 3f
       -0.10448920273418216 0.05862554040692784
0006d0 c6 86 91 33 14 02 a7 3f 91 aa 94 21 58 4a ba bf
       0.04493773583886944 -0.10269690341798766
0006e0 0b 3b 40 cb d2 6d b0 3f 5d 37 24 75 68 ec 88 bf
       0.06417577230625342 -0.012169662546991306
0006f0 26 45 a0 02 2f 1a b5 3f 53 63 14 d2 94 5f 74 bf
       0.08243078054535555 -0.004973965960083887
000700 a4 08 fe 9e 60 22 c1 bf 48 cb d3 44 2c fb 96 3f
       -0.13386161578461497 0.022442523671041742
000710 a0 dd ca 18 2d f8 b4 bf 95 c7 67 93 56 c1 84 bf
       -0.08191186766895564 -0.010134388326125602
000720 f9 e8 32 8c ea 5a a7 3f 5e 87 22 03 14 ff ba bf
       0.04561551057254749 -0.10545468403372868
000730 cf 97 93 9b 2b df bd 3f 4d 65 c4 c1 61 6f b2 bf
       0.11668655918364766 -0.07201205235141579
000740 ac 8c bc 11 27 14 a0 3f 5f b8 88 b6 1a f3 af 3f
       0.03140375224600098 0.06240161398123755
000750 dd 61 dd 0a b2 6c af bf 30 79 e4 09 84 99 b3 3f
       -0.06137615568758623 0.07656121484294398
000760 9f cc a8 ed a5 71 aa bf c7 85 ec b1 38 d7 b9 3f
       -0.05164831663241753 0.10094026893468487
000770 a3 6e e6 c1 9e bf ba bf 11 ca 30 43 cc 74 c1 bf
       -0.10448639139070308 -0.13637688904562187
000780 f6 e3 ab fa 0c db a5 bf 34 80 6f e5 9d f6 aa bf
       -0.042686849212209596 -0.05266278672911576
000790 8d 03 80 62 80 cc 89 3f 00 28 6f 4b 5a 6e b1 3f
       0.012597086912139033 0.06809009877829908
0007a0 08 71 eb 9a 39 77 b0 3f 83 38 b0 d0 7e 1a 9a bf
       0.06431922943324164 -0.025491696822478104
0007b0 1d 14 cf 1e e5 8f 9b bf 2d 18 1a 73 47 3f 83 bf
       -0.02691610336821181 -0.009398039054996666
0007c0 3f a1 f0 50 de 7c a7 3f fa 98 9d be 8e 71 9d 3f
       0.04587454546009661 0.028753500351194262
0007d0 23 4a 05 8d 1c ee 97 3f 68 4e 4b 53 64 30 a2 3f
       0.02336926089021508 0.03552545086645581
0007e0 dc 68 4b dc 73 5d a5 3f 92 62 3c 5a 90 84 a1 bf
       0.041728611604143956 -0.03421450711738773
0007f0 5f a6 90 0e 8e 39 ab bf 39 06 03 42 8a 38 8a 3f
       -0.05317348411365396 0.01280315412475651

separableConv.1.weight f8 [32]
000000 07 4a da f9 3a 0e f4 3f 46 1f da f4 7c 4e f4 3f
       1.2534742126341614 1.2691621365101624
000010 c7 2d d5 f7 0f ef f5 3f d9 99 18 88 97 08 f6 3f
       1.37086483773861 1.3770976368192491
000020 df b4 26 02 e6 fb f3 3f 2d 36 00 b2 62 95 f5 3f
       1.2489986499816081 1.3489710763127605
000030 50 75 d3 84 7c 8e f4 3f 92 b5 75 85 3a 4f f2 3f
       1.2847867191806763 1.1443429196618564
000040 b1 bd 67 d0 76 69 f3 3f cc 19 18 ae 41 ba f2 3f
       1.213248075564348 1.1704727936317907
000050 a0 ae 8f 3b e6 8b f3 3f e3 e2 61 60 ba 36 f7 3f
       1.2216551138507512 1.450861336225153
000060 a9 ea 27 a1 98 1b f6 3f 68 bc 78 b1 88 33 f4 3f
       1.3817373557236954 1.2625815327153536
000070 6e cb 1d 59 f1 69 f2 3f 4b c6 88 de de 2e f3 3f
       1.1508649331196596 1.1989430134530206
000080 b9 93 a3 b9 fe 72 f4 3f e9 9c 09 46 32 c7 f1 3f
       1.2780749560854316 1.1111319290010278
000090 c7 e1 f3 90 e3 42 f2 3f c6 b5 52 67 2f cc f2 3f
       1.1413303053105766 1.1748498951013615
0000a0 db db b7 ad 19 37 f3 3f a8 28 d1 6a 83 6a f2 3f
       1.2009522233836296 1.1510042355098822
0000b0 85 bb 18 2a 48 1c f4 3f ca 8f ea 9b 24 bb f4 3f
       1.256904758872879 1.2956892099837085
0000c0 45 9c e5 88 93 59 f2 3f f0 bd 4f 32 a3 85 f4 3f
       1.1468692157302638 1.2826263394634871
0000d0 77 31 88 4b f2 41 f2 3f fd 3e b1 3a 05 f8 f1 3f
       1.141100211188215 1.1230518620176888
0000e0 c7 d8 1a a4 ef 50 f3 3f fa 60 74 15 b1 29 f2 3f
       1.2072597894999022 1.1351786459036348
0000f0 ce 4c f9 0a cc c1 f3 3f 14 78 71 87 e2 b3 f2 3f
       1.2348137310662426 1.1689172068358902

separableConv.1.bias f8 [32]
000000 9c e4 88 bd 6c a1 d2 bf 78 ba 3e ce e2 43 d3 bf
       -0.2911025858807734 -0.3010184301482819
000010 56 df e5 80 ca 96 d2 bf 39 9b 39 71 74 0b d4 bf
       -0.290453554036039 -0.31319914872294735
000020 35 3a 6c ed 91 7f d2 bf da fc 9d 54 0e cc d4 bf
       -0.2890362566548988 -0.3249545885409596
000030 12 e0 3f 7f 5b 9e d2 bf a3 84 45 fc da 77 ca bf
       -0.2909153692885421 -0.20678269689509418
000040 6c 72 2b e6 f6 6a c7 bf 94 ed df c9 7a d5 cd bf
       -0.18295179594760513 -0.23307738167919168
000050 9e ad 23 63 86 e3 cf bf 0b 8e 06 f3 16 f7 d6 bf
       -0.2491310104445405 -0.3588311551377223
000060 85 f5 97 9c dd ad d6 bf d9 f4 53 46 1e a7 d3 bf
       -0.3543619183763769 -0.307075089149135
000070 33 83 3a dc ac cd cf bf b8 cb 60 5f 48 0a ce bf
       -0.24846421006534455 -0.23468880326399044
000080 f4 b5 f5 8a f3 b5 d2 bf 26 5b 84 69 1d 55 c3 bf
       -0.2923554284123775 -0.1510350003452114
000090 66 88 fa 81 64 fe ca bf 01 d0 8f 13 32 25 c6 bf
       -0.21088844629872766 -0.17301011996426044
0000a0 66 07 c4 48 e6 c6 cc bf 59 61 9c 6f 2e b0 c7 bf
       -0.22481993248953386 -0.18506412935017627
0000b0 bd d9 8c 44 44 15 b1 bf 72 62 8a 8b a8 5d d2 bf
       -0.06673075364674382 -0.286966453809817
0000c0 43 04 3a b7 a1 39 c9 bf f3 da 3e 2c ec c7 d3 bf
       -0.19707127997028992 -0.3090773040852774
0000d0 e5 a6 be 72 ff ac c8 bf b0 d7 e0 95 1d d3 cd bf
       -0.19277947523851605 -0.23300523584628996
0000e0 76 93 0f bb 21 d4 cd bf fc 98 30 7e 23 86 cb bf
       -0.23303624757604852 -0.215031086555605
0000f0 f6 42 81 27 69 5f c5 bf 75 b7 4e f1 7f 30 c8 bf
       -0.16697420529319346 -0.1889800956973279

separableConv.1.running_mean f8 [32]
000000 1b 79 35 df 75 51 9c bf af 5c be 9c 3e d6 8d bf
       -0.027654496906842057 -0.014568795355258094
000010 3d 9e 72 2a 84 4a b2 bf a5 10 fd 56 69 3f a3 bf
       -0.07144952808686696 -0.03759316622611778
000020 69 60 dc 31 1e 9b 9c bf 18 b5 1e af 5a 5b bb bf
       -0.027935478013290913 -0.10686270499600814
000030 f3 9a 09 62 34 e9 a7 bf 41 13 3e 06 d6 11 b0 bf
       -0.04670108505961492 -0.06277215626148537
000040 b4 2a e7 61 76 31 99 bf be e6 3a f4 4e 78 a1 bf
       -0.024602746701740855 -0.03412100535701999
000050 0d a7 9a ec ca 63 87 3f d0 f8 47 97 6b 91 ac bf
       0.011420808168014962 -0.05579696866696937
000060 97 f0 1c 74 c5 f0 b9 bf 59 93 9e 27 91 aa 80 bf
       -0.10133012852469601 -0.008137830754842023
000070 60 41 29 79 9e d2 6d bf f5 33 f3 e9 b4 3a a8 bf
       -0.0036404700452196542 -0.04732289653620817
000080 03 71 d3 19 90 20 a5 bf 91 80 a7 c2 64 b8 91 bf
       -0.041264060165959314 -0.017304968243366196
000090 50 a8 ad 46 36 31 92 bf 67 50 1c 9e d0 3a b5 bf
       -0.017765853942741494 -0.08292869434473148
0000a0 a4 9d 07 0a c8 08 9a bf b4 23 ec 1d d7 af 49 3f
       -0.025424123394172007 0.0007839012504017224
0000b0 60 40 8b 72 01 b4 92 bf 82 5d 09 ce 0b 40 a5 bf
       -0.018264792076309155 -0.04150425806136139
0000c0 8d 7d 3f df c9 41 ab bf 57 82 6a 48 f0 bb 93 bf
       -0.05323630190082005 -0.01927161638252736
0000d0 94 1f e3 1b a8 49 95 bf 1d fa ac 01 e3 d2 aa 3f
       -0.020788790418719907 0.05239018817382066
0000e0 b8 1b 2f e6 72 08 99 bf cd bb 05 9b 8c b8 a5 bf
       -0.02444629220897429 -0.0424236239658665
0000f0 ef 4f 4b 12 d1 b5 b1 bf a0 70 82 a3 4c 73 ad bf
       -0.06918055245051823 -0.05752028938260989

separableConv.1.running_var f8 [32]
000000 8c 54 30 23 bd ba 06 40 d5 60 8a af 1e 65 06 40
       2.841181063568518 2.799374934587926
000010 bb b4 61 3b 01 62 0a 40 dc d2 74 be 43 02 06 40
       3.2978539122765063 2.751105773868728
000020 18 f3 53 ee 9d c3 02 40 a4 8d 08 4a 05 d4 06 40
       2.345516073166788 2.8535257133350616
000030 94 13 c4 46 b9 3f 07 40 fc 64 26 d8 bd 17 05 40
       2.9061151054942886 2.6365925680844366
000040 9a 96 cb 2d d2 ee 0e 40 7a 84 18 5a e3 ba 01 40
       3.8666118219142165 2.216253951905455
000050 09 91 2e 8a 1d 0f 02 40 39 21 f1 a1 74 51 20 40
       2.2573805613957387 8.15909296101073
000060 ab 36 f0 77 b0 f6 01 40 76 13 82 38 d9 e6 06 40
       2.2454537744696004 2.862719003171544
000070 82 3a f5 94 3c a5 03 40 8c 72 3b ea 77 50 06 40
       2.455681956990987 2.789291219653313
000080 cd 5c 69 30 d8 de 06 40 5b ec 6f 85 ff 46 02 40
       2.8588107854990086 2.2846670555859823
000090 3a 9f 8c 87 23 b9 05 40 59 db db c7 31 e0 05 40
       2.7153997983731673 2.7344699491472224
0000a0 8c 13 8a d6 1b a6 07 40 17 0e ee bb 74 82 06 40
       2.9561077843558845 2.8136992151282914
0000b0 b6 30 96 46 28 82 ff 3f ea 61 96 2d 51 10 06 40
       1.9692766911785333 2.757967334892091
0000c0 d2 cf 04 98 72 61 00 40 d6 89 93 46 da 40 02 40
       2.047581851622433 2.281666327836528
0000d0 68 3c 5d f1 ed e4 06 40 2f c7 0c 11 ac b7 02 40
       2.861781964929424 2.3396836597466044
0000e0 50 b5 63 da ff 44 08 40 0a 77 2c 03 02 88 09 40
       3.0336911260298294 3.191410088343109
0000f0 ed 48 d5 22 5f 02 01 40 55 c5 4f 60 20 64 04 40
       2.126158020147264 2.548889877733624
