lab2/results/weights/EEGNet_ReLU-88.43.pth (torch_old, 147596 bytes, 17 tensors)

firstConv.0.weight f8 [16, 1, 1, 51]
000000 98 fb 70 df 3c 2c c3 3f ec 0a 47 63 7c 4f a1 3f
       0.1497875300428546 0.03380955421336815
000010 33 3a 03 f9 f9 ee b4 3f e5 f8 4d f2 bb 6b ad 3f
       0.08177149133118959 0.0574625714570958
000020 53 a1 8c ab eb 7f b1 bf 13 a6 88 e4 b1 39 b1 bf
       -0.06835816324440218 -0.06728660420835579
000030 8b 81 68 db f5 63 77 bf 6d a0 40 b5 64 38 b4 bf
       -0.005710564021257257 -0.07898549485310165
000040 88 14 45 cb f4 29 98 bf 13 69 0c 60 9d e1 a3 bf
       -0.02359755030308411 -0.03883067891566063
000050 11 23 2c 01 b9 9a b0 3f f6 18 59 76 18 c1 98 3f
       0.06486088064788144 0.024174101088896692
000060 ca c8 ac 55 9e 24 bf 3f 6d 65 77 b3 e2 06 81 bf
       0.12165250388787566 -0.008313914396171207
000070 75 99 37 8d c1 ed b6 3f 9e ba 36 1b ee bb b3 3f
       0.0895653695839423 0.07708633579634713
000080 62 e7 29 43 4d ba a0 bf 69 b8 a0 bf 96 76 b6 bf
       -0.032671369980518575 -0.08774702242291856
000090 dc 64 19 6c 1b 16 af bf 96 8d f5 82 21 c0 b6 bf
       -0.06071553892679457 -0.08886918494459048
0000a0 fc ec 1f a2 3c 05 79 3f c8 d3 e2 e1 6b da b8 bf
       0.006108509873224973 -0.09708284630580899
0000b0 08 d8 a3 d3 78 c8 a2 3f d1 c5 df 5c b0 08 a0 3f
       0.036685729823076996 0.031316291176959894
0000c0 d5 17 65 2b 65 2c b9 3f a3 5f 2e 36 17 7c 3b bf
       0.09833366689153362 -0.00041938368502191843
0000d0 f5 bd 21 85 f3 a8 af 3f 99 f4 f1 12 fd 71 bf 3f
       0.06183587074417211 0.12283307755019947
0000e0 7b 06 31 29 9e 65 b6 bf 5d c3 2a 09 27 c6 78 bf
       -0.08748806481983167 -0.0060483479343681175
0000f0 30 53 6f 97 ed 36 aa bf 4c c6 5f d7 2e 3a ad bf
       -0.051200318084431706 -0.05708452586248977
000100 c7 45 9c f8 ab 2a 7d 3f 1b 4f 1e ad 07 01 b5 bf
       0.007120773088688143 -0.08204696632884316
000110 c4 9b 9f 13 d0 35 95 3f 53 76 2c b4 5a aa b3 bf
       0.020713092038842765 -0.07681815050860878
000120 68 02 b5 4b b4 76 c1 3f a0 fa d9 e8 07 c2 a2 3f
       0.13643506714471987 0.03663658826279925
000130 bd de 2d 04 ec 7a a3 3f 65 0e 4c a0 a8 c0 94 3f
       0.03804719496741658 0.020266184600599497
000140 1c 9d 55 6a db 69 b5 3f d8 73 61 db ab 8b ac bf
       0.08364650102668175 -0.0557531075762438
000150 a8 b4 0c 65 96 61 b6 bf 3a 54 78 ca f4 28 a5 bf
       -0.08742656676322957 -0.041328096118526905
000160 18 87 52 a6 29 e0 a7 bf 15 34 c4 6d 5a 68 ba bf
       -0.046632100632690576 -0.10315480403751594
000170 65 f7 3b 5a 41 a8 8d bf cf 70 2e d6 4c 09 a0 bf
       -0.01448107773421343 -0.03132095446128035
000180 28 d8 2a 50 50 56 b6 3f f1 bc 67 61 8d 48 9f 3f
       0.08725454289637524 0.030550202436583743
000190 52 40 48 23 07 9d c7 3f 6f d8 d1 89 0e af 9a 3f
       0.18447961066022117 0.026058413659903964
0001a0 4a 6b 53 67 5f 82 90 bf ed 99 ae 26 fd 1c b8 3f
       -0.016122332269201047 0.09419233507524157
0001b0 c2 47 48 de d4 1d 85 3f 7b e5 18 09 31 a2 c0 3f
       0.010310805352705791 0.12994969314767588
0001c0 1b f0 e1 c3 21 a2 93 3f 07 c4 47 66 e5 f4 c4 3f
       0.01917317159721686 0.16372363561779954
0001d0 3d df 85 07 25 9e c0 bf 12 1c 6a 94 87 91 b5 bf
       -0.12982619159060418 -0.0842518555965486
0001e0 21 01 ac 4a 19 a6 b6 bf 10 37 3d 50 54 c7 a5 3f
       -0.08847196648639911 0.04253638724786246
0001f0 90 7b f0 b1 77 cd b1 bf 8b 41 d4 1c ac 45 96 bf
       -0.06954143614028241 -0.021750153789129405
000200 03 25 3a ed 17 32 b3 bf 4b c5 20 78 14 f1 b5 bf
       -0.07498311559369956 -0.08570983822644
000210 81 09 07 7b 27 79 b9 3f d4 e5 fc 1c aa 8f b4 3f
       0.09950491670227814 0.08031714637481652
000220 54 98 5d 42 1e 73 b7 3f ec 93 6b ff 2f 1c b6 bf
       0.09160031433347743 -0.08636760698171003
000230 dd 83 71 aa 6f 02 ab 3f b7 df 80 36 79 dc b1 3f
       0.05275296168907293 0.0697704084458327
000240 66 48 c0 d4 d2 0b bb 3f 34 ba 80 5f 3e 11 88 3f
       0.10564916319006698 0.011751639642253321
000250 07 bb ce ff ce 1b be bf 13 af ee 49 52 6f bd bf
       -0.11761182542134573 -0.1149798803805278
000260 62 fa d3 af 60 d5 a9 bf a7 d4 47 f8 3d 46 92 bf
       -0.05045606752718325 -0.017846077231258885
000270 fc 08 f9 3b b4 5a c0 3f 37 9d b4 79 df 81 b7 bf
       0.1277680676303773 -0.09182545396162288
000280 f8 52 8b a6 d3 32 95 bf cd ba 4d 30 1a 2a c0 bf
       -0.020701701202443495 -0.1262848602159096
000290 6a 9e ab a5 5c 09 c6 3f e6 66 7c 6a 0b be c3 3f
       0.17216070260404887 0.15423720073231734
0002a0 6c 5c 1a 7f c4 83 99 bf 8c 5c 3a 0b f8 cc b7 bf
       -0.024916715867757608 -0.09297132753487086
0002b0 8b 82 8f cf a2 85 84 bf e4 6e cb 81 32 df a4 3f
       -0.01002051540302886 0.040765360206675344
0002c0 d1 c0 b2 e4 6f 72 a0 3f 31 ad 89 19 71 c2 80 bf
       0.03212308565832845 -0.008183368293620848
0002d0 e0 1a a3 d2 ad c4 c5 bf 0a 69 e9 ea 29 5a ab bf
       -0.17006466660514885 -0.05342226975035842
0002e0 5f 0c 40 45 d2 bb b3 bf 17 11 d1 03 e8 c1 c0 3f
       -0.07708467665365636 0.13091755091057486
0002f0 b4 11 43 72 5b c8 9b 3f bd 1d 76 46 04 11 ba bf
       0.027131489609716744 -0.10182215423821268
000300 cd d2 cd a4 66 93 a0 3f ef 9c 5c 3e 3e f1 b0 3f
       0.03237458001868774 0.06618107817176953
000310 29 12 8b 1a 5a 30 bf 3f 65 ec 65 f4 36 af c6 3f
       0.1218315424731108 0.17722212728026246
000320 c2 0c 6b 37 23 2b 74 3f 04 9f 8e cf 33 a2 bb bf
       0.004923951687206331 -0.10794376199066497
000330 ff c8 9f 80 02 6c b1 3f 62 c6 7b 45 ec 97 c1 bf
       0.06805434837568568 -0.1374488200449831
000340 4e 87 be bf 1f 2a 4e bf 2c 63 54 60 e4 d6 a0 3f
       -0.0009205489181918021 0.03288949657343773
000350 01 e9 0e fe 34 e2 b0 3f d5 0e 09 d8 8c b8 b1 3f
       0.06595164492219753 0.06922226213742573
000360 7a 6e 5c 71 d7 ee b3 bf fd c3 25 b0 ed bc b9 bf
       -0.07786318318943045 -0.10053906965710264
000370 d9 cc 20 13 85 4f 87 bf 7e 53 9f 3b bb 4e ad 3f
       -0.011382140775913306 0.05724129774868113
000380 1d d8 e9 1e 6c 4f c2 3f 4c 26 59 09 25 96 9f bf
       0.1430487776703452 -0.030846193976947142
000390 e7 14 41 48 1e cf b4 bf 8b 34 db a8 c6 4e a5 bf
       -0.08128537429827852 -0.041616638290727336
0003a0 80 f0 9b d3 b5 3c a3 bf d3 a3 fa e2 3c 92 c0 3f
       -0.03757255752677313 0.12946282465898537
0003b0 08 b4 69 07 96 60 bc 3f 52 5f 58 be 8b ea b3 bf
       0.11084878617266736 -0.07779763600444525
0003c0 02 af e9 fb 9f ed b2 bf e9 4b d6 a1 94 8a bd bf
       -0.07393836879935736 -0.11539582205868694
0003d0 ed 46 0e b8 bc 06 b5 3f 44 7e 89 45 77 9d c2 3f
       0.08213405126141611 0.1454304780518091
0003e0 4c 36 50 d7 8d 1d 83 3f 4f 52 85 5e bc 9f 9b bf
       0.009333713658658337 -0.026976531285372748
0003f0 c6 c6 17 6a 0c 64 c0 bf 53 4a 7a e7 f9 1f 9b bf
       -0.1280532377273202 -0.026489166978146916
000400 e5 11 f6 7b ed 9e bc 3f d1 53 66 12 f4 ea ae 3f
       0.11180004383465521 0.06038630222898401
000410 d4 f2 45 09 90 0c 98 bf b3 1b d4 26 cc 14 b2 bf
       -0.02348542267417282 -0.07062984416925992
000420 80 ee 13 62 46 03 a9 bf 8d 4a 33 54 21 03 83 bf
       -0.04885311076392629 -0.00928331411561103
000430 3f 8e 2b 52 2a 94 b9 3f 94 cb fd 7c bd 79 b4 3f
       0.09991707330805698 0.07998260785625028
000440 3d 72 a9 c3 91 09 b7 bf cb c3 ea 80 0a 7b 73 3f
       -0.0899897673311409 0.004756012944810937
000450 5a 3f e1 ba 67 f0 ba bf c7 03 38 78 e8 9c a0 3f
       -0.10523079216477296 0.032447113680980126
000460 67 a8 3b b2 bb 69 bd 3f 54 99 f6 72 14 c5 84 bf
       0.11489461041824854 -0.010141525038147726
000470 eb 4b b7 f9 ea 35 99 bf 17 38 dc 6a 7b 7b a5 bf
       -0.024619742862181864 -0.0419577186531656
000480 47 19 49 39 05 b4 b0 bf a9 ea 65 62 1e 4f b2 3f
       -0.06524689339230348 0.07151975538537649
000490 64 2b 0b aa 39 84 70 3f c5 2d 63 e2 10 45 ac 3f
       0.004032349825773138 0.05521443141477848
0004a0 10 b3 25 b5 35 2e a0 bf 8a a4 9c 9b 0f b9 af bf
       -0.03160255275984103 -0.061958778138724815
0004b0 10 f3 15 5d 11 f0 9a 3f 3a 97 ac 77 45 ae 8f bf
       0.02630641108179349 -0.015469114985147681
0004c0 7d 1c a3 6c 9f 22 ad 3f f7 3b 70 bb 07 f8 d0 3f
       0.056904775630351324 0.26513856224568094
0004d0 03 16 c3 36 d6 de b0 3f 06 f5 ab 0e 8d 31 95 3f
       0.06590021931614136 0.020696834583749733
0004e0 e1 d6 c9 ce a6 9a c6 3f 2c 5b 3b 2c a9 a8 b4 3f
       0.1765945920666843 0.08069856004599946
0004f0 03 22 e6 48 da 94 af 3f 9e 6c 75 96 8b 03 c2 3f
       0.061682530783461 0.1407331928884092
000500 bf d1 4e be 63 42 a4 bf be dd 6b 74 d0 3f ca 3f
       -0.039569012623732906 0.20507245716701833
000510 73 31 c4 76 c2 d1 bc 3f 7e fb bc c4 6c e6 48 bf
       0.11257567786760152 -0.0007598906608804327
000520 17 ad 2c 27 6c de bf 3f df e5 01 e4 fa 27 bb 3f
       0.12448764759453855 0.10607879702174426
000530 59 be 49 de ae a9 bb 3f 99 fe ae fd c1 ba 7f 3f
       0.10805790831522567 0.007746465470461005
000540 79 ed 1f a8 d7 e2 8d 3f 01 1c 28 b6 e9 aa b6 3f
       0.014592823808917231 0.08854542443451409
000550 c4 00 6a 79 36 59 a0 3f b3 71 b4 17 a9 96 c2 3f
       0.031930639573148706 0.14522279412711966
000560 04 cc 9d f7 6f 48 ba bf 99 4c 3e 9b 8b 1f c2 3f
       -0.10266780658075453 0.1415876873039437
000570 87 57 dd 53 a4 c6 80 bf 7c eb ca 1f 1a 85 c5 3f
       -0.00819137936529636 0.1681244521367623
000580 ea 8e f1 81 03 fb 9c bf 5a 33 b8 11 2f 0d ae bf
       -0.028301291280867703 -0.058694334900883674
000590 41 8f bd fa 89 de ac bf a3 65 77 30 bb 39 9b 3f
       -0.05638533769413679 0.026587414582399337
0005a0 8f 08 12 13 93 7d a8 bf d0 6a 37 45 d7 94 b6 bf
       -0.04783305747788901 -0.0882086318955928
0005b0 e2 e0 7d d7 8e 94 a1 bf 6a 6a ee ed 54 80 b5 3f
       -0.034336532406941137 0.08398943718786148
0005c0 62 a6 f5 13 e4 6f b3 bf ee 7c ae 9a d0 9e aa bf
       -0.07592607009214583 -0.05199291122630166
0005d0 1b a2 de 2e d6 b4 9b 3f f2 49 d6 52 e0 ed bb bf
       0.02705702458448132 -0.10909845373524954
0005e0 5b 0e 58 e0 cc 55 50 bf 69 35 c0 ef 11 84 b6 bf
       -0.0009970188851874593 -0.08795272925654775
0005f0 39 a0 e2 5c b2 2a b8 bf 17 27 18 37 12 e3 bd 3f
       -0.09440150039392926 0.1167460808284456
000600 e8 3c f5 0d be 01 ae bf d6 62 96 64 63 83 a8 3f
       -0.05860704346070539 0.047877412823429985
000610 8c 4c e7 72 c8 c9 85 bf d6 e9 c1 cf 72 51 b1 bf
       -0.010638776785447022 -0.06764905521587336
000620 55 b7 1b e9 26 d5 85 bf 81 1a 22 71 19 bd 98 3f
       -0.010660461415195202 0.0241588568974529
000630 12 ff 7a 80 5b cb b7 bf 43 9e 62 19 ae f5 62 bf
       -0.092946738116549 -0.0023144150137175703
000640 fd 29 87 66 a0 2f c1 3f ad 5b ac b3 b2 7d a2 3f
       0.13426594740151634 0.03611525004651326
000650 06 3e b1 f3 3d d7 b4 3f 2c 3f b2 b2 bd d1 c2 3f
       0.08140933227081612 0.14702578759578822
000660 14 9b 08 c0 b5 2a 91 bf b1 44 39 b1 52 ff af bf
       -0.016764488073159958 -0.062494835027459124
000670 ce e9 45 c6 26 41 89 3f d9 9f 05 d1 cc a8 b2 bf
       0.012331297803702148 -0.07288818457675407
000680 aa 5f 7e 00 1a 9d b0 3f f3 90 68 03 98 3d a4 bf
       0.06489717971851286 -0.03953242341620635
000690 99 d3 ac a7 9b d6 c3 3f 06 1e b7 f6 86 75 90 3f
       0.15498681723843502 0.016073330696398734
0006a0 1e 9b 51 e0 3d 5c b4 3f 4a 96 50 87 88 8e c3 bf
       0.07953249670536564 -0.1527872715679897
0006b0 c3 8a 28 d3 bd f0 b8 bf a2 36 cb 53 e9 ed b0 bf
       -0.09742342381700113 -0.06613024039981011
0006c0 0e c3 42 a1 c6 79 b0 3f 5c ac c1 00 f1 bb b5 3f
       0.06435815274268128 0.08489900845022319
0006d0 de cf 44 0c 99 c8 bb 3f c0 46 85 b5 41 2d b8 bf
       0.10852963017970249 -0.09444056207328355
0006e0 b0 59 74 3b 12 25 ad bf 82 a6 6b 0b 2a b9 ba bf
       -0.056923455960873226 -0.10438788203068763
0006f0 da e5 ff d3 9e 7c a5 bf b1 24 87 38 93 0a a3 3f
       -0.041966403368814034 0.03719005646741758
000700 e5 2c 9a 59 e2 3d a4 bf ec be 3c 60 74 5a be bf
       -0.03953463882234035 -0.11856772756140871
000710 ef 89 06 11 79 20 a0 3f 0f 68 7a df e2 89 b0 bf
       0.031497748688042886 -0.06460397678384332
000720 5a 80 0d 35 ec 91 ba 3f 95 82 7a 4b 97 68 b7 bf
       0.10378910346253303 -0.09143968193758163
000730 03 bc d0 e3 35 a3 bc bf af c8 37 6a 69 e5 70 3f
       -0.11186539470575955 0.004125034119612333
000740 79 d4 9e 8e 37 a0 95 3f 56 98 00 86 4b e2 aa 3f
       0.021118991927967266 0.052507743938165305
000750 ef e0 54 00 e4 53 a3 3f 33 6b 17 1b f5 34 7f 3f
       0.037749409714196484 0.007618863529809161
000760 c8 7d 33 5c 49 f0 98 bf 82 8a d3 0a db 52 8f bf
       -0.02435412049532973 -0.015294753330129088
000770 a9 30 fc f9 40 b9 b1 bf 68 61 59 f4 e6 6b b7 3f
       -0.06923299887802394 0.09149020638995398
000780 5e f4 d4 3f 63 d4 be 3f af e7 ee d1 c8 d0 c0 3f
       0.12042827900309436 0.1313715958656849
000790 07 3c 12 87 39 cb 8d bf c8 5f 00 21 90 92 9c bf
       -0.014547776636645094 -0.027902843488931045
0007a0 5d 98 ad 7b 41 72 af 3f fd 5e 8c 12 27 ed c4 bf
       0.06141857752554423 -0.1634873238151541
0007b0 5f c2 84 b0 35 d6 b1 3f 8e 06 ba 24 96 50 bc 3f
       0.06967483100448522 0.11060465237280878
0007c0 c8 ca bc 67 02 ab c2 3f 46 07 b5 6c a8 1c b0 bf
       0.14584379258447755 -0.06293728498442616
0007d0 a9 d2 af 36 a9 1c c1 bf 6f f5 b4 24 51 66 b2 bf
       -0.13368716402296357 -0.07187373300708598
0007e0 d5 f8 a8 c9 e4 bc b7 3f a4 fd f4 c1 b4 de c1 3f
       0.0927260391553973 0.13960895033413323
0007f0 12 f1 ee 74 b6 e1 b9 bf 13 99 44 37 61 03 d0 3f
       -0.10110035281008248 0.25020628354322233

firstConv.1.weight f8 [16]
000000 8e 91 6d 97 80 2d ef 3f 49 b8 b5 7f 1f 39 ee 3f
       0.9743044812753838 0.9444730276425243
000010 a1 51 e0 28 b7 e5 ed 3f 99 f3 a0 a7 08 f9 ee 3f
       0.9342914389003917 0.9678996347425822
000020 e4 f4 d3 f9 25 7e ee 3f f3 06 28 ea 30 94 ec 3f
       0.9528989676906829 0.8930897305837945
000030 9c 86 b3 79 3b 3d ef 3f 6b 67 c6 39 3b 32 ed 3f
       0.9762246491411193 0.9123817566316864
000040 e5 a4 75 9c 66 e7 ed 3f eb 81 99 24 b3 44 ef 3f
       0.9344971710062536 0.9771362032734577
000050 0f da c0 5b 49 67 ed 3f 21 ef 73 8a a0 5d ed 3f
       0.9188582222039389 0.9176790908963747
000060 b6 6f 87 ba 8a ca ef 3f 5e 72 aa 79 2f a1 ee 3f
       0.9934743540902591 0.9571759582791619
000070 81 9b c7 6e f8 1f ee 3f 1a 0c b5 74 b3 31 ed 3f
       0.941402641646036 0.912317016547948

firstConv.1.bias f8 [16]
000000 e3 c5 41 56 ee 29 63 3d 99 ba 5f 40 64 06 49 3d
       5.44667755750376e-13 1.7781308667886816e-13
000010 cc 3c 02 64 a2 c5 71 3d 36 e4 50 a5 fe 60 65 3d
       1.0102217592483133e-12 6.076244740717775e-13
000020 82 79 17 e6 a6 4b 71 3d fe 57 00 03 c6 42 71 bd
       9.831362276326154e-13 -9.811648123518545e-13
000030 8c 5f a1 de dd 84 84 bd d7 38 ba ed 00 89 47 3d
       -2.332741412622748e-12 1.6722744376564696e-13
000040 30 99 54 21 7c 9c 3a 3d 6a ec f6 d2 7b 03 6c 3d
       9.454221965830145e-14 7.961946310934265e-13
000050 1a c3 f3 a4 93 cf 58 bd f5 62 30 93 f6 84 64 3d
       -3.5258333673353407e-13 5.831960673747866e-13
000060 9d fb 6d f6 7d 32 62 3d ec 07 1b 32 18 ed 4b bd
       5.171965124470378e-13 -1.984272333818877e-13
000070 3a 9f c0 d7 3c ea 22 bd 80 2c 7d f7 d8 04 69 3d
       -3.359977342965457e-14 7.110809193002599e-13

firstConv.1.running_mean f8 [16]
000000 97 c1 20 d5 c3 39 8d bf 12 e5 83 be 2c 15 8e bf
       -0.01427033418812655 -0.014688825191557817
000010 29 31 2d f2 5b a0 51 bf 70 f8 7a f6 56 2a b1 bf
       -0.0010758302602936287 -0.067052302528255
000020 06 e1 9f e1 9a 09 72 bf 7a 2f 7a 4c d3 5c b3 bf
       -0.004403691296822615 -0.07563515298005355
000030 30 0b 83 4d e6 72 52 3f 88 ee 34 54 c9 2c b3 bf
       0.0011260270166963508 -0.07490213685826508
000040 b1 ad c4 ca b5 f9 82 bf 6f 63 e5 9f 8e 0e 40 bf
       -0.009265346765991863 -0.0004900165948057265
000050 4b a1 53 34 59 3f b1 3f a1 c1 f4 c0 bc b3 a2 bf
       0.06737287070757707 -0.036527536920746735
000060 79 d3 ff ad ee f1 2d bf 67 98 d8 e4 8a 2f b0 3f
       -0.00022846258707400946 0.06322544180929555
000070 68 cc 9a ba 6e 06 c1 3f 92 3f eb 50 a6 25 33 3f
       0.1330088053851768 0.00029216108752638207

firstConv.1.running_var f8 [16]
000000 15 cb 98 6b ff 1b 35 40 10 82 90 fd 31 c7 30 40
       21.10936615448289 16.778106544285095
000010 d8 82 42 32 53 50 03 40 aa b9 02 31 7b de 4f 40
       2.4142211844012813 63.73813450463361
000020 99 1d 84 96 fc 92 1b 40 d9 ac 43 b9 98 94 5a 40
       6.8935416715752575 106.32182151421456
000030 9e dc 07 be 4b bf 05 40 f3 5f ff e1 83 11 41 40
       2.7184061857365824 34.13683724374268
000040 f7 a1 c6 16 da af 15 40 bb 6f b3 04 ed c0 f9 3f
       5.421730380891396 1.6096010383252934
000050 27 95 a9 ae 47 2a 41 40 94 44 69 78 1a 31 46 40
       34.33031256943132 44.383620311165174
000060 1a 70 af 2e ea 06 21 40 1f ad 97 59 15 ef 5b 40
       8.513505419650802 111.73567809879431
000070 b4 b3 a5 5e 12 65 66 40 75 20 52 28 b0 d9 ff 3f
       179.15849239696183 1.9906465125114015

depthwiseConv.0.weight f8 [32, 1, 2, 1]
000000 45 a4 78 f6 6c a2 d9 bf 33 34 80 f8 90 39 de 3f
       -0.4005386740632882 0.4722635676160422
000010 8b 23 98 1a 26 24 b0 bf d5 52 a2 a0 1c 73 ce bf
       -0.06305158757471767 -0.23788793414555323
000020 78 8b e3 83 39 7d a0 3f 1e d5 85 76 1a bc d4 bf
       0.0322053884026649 -0.3239809186410002
000030 d4 bd 39 ef 01 c0 e2 bf 2d 5e 0a 8e f1 29 da 3f
       -0.5859384224294737 0.4088100325693372
000040 b9 36 5c 79 7b 51 df bf 7f dc 6b 6d 56 14 b4 3f
       -0.4893482861669827 0.07843532725734013
000050 c9 98 b0 eb 64 15 bb bf af 37 6b 6a bc eb e4 3f
       -0.10579519991060517 0.6537763670437381
000060 bc 84 ba 8f aa 4f e0 3f 9f 13 ad 77 ca 42 e1 bf
       0.5097248847197515 -0.5394031846450281
000070 3f 19 23 b7 69 e9 bc 3f 0e 0b 2b 6c 7f 41 e2 bf
       0.11293659897919371 -0.5704953301104483
000080 19 e9 08 c0 f0 93 e5 3f e1 f1 b3 3a e0 83 d2 bf
       0.6743091345481701 -0.2892990659018136
000090 cc c5 96 1e 35 24 d3 3f 54 2b c5 b8 ae 4f db bf
       0.2990849302978773 -0.42673843425716496
0000a0 51 0e de 28 ba 98 d1 bf 17 db 65 c2 4b fc dc 3f
       -0.2749467276664506 0.4528989218155614
0000b0 30 f1 f6 f7 9c 1e c6 bf c1 53 e1 69 d1 78 d4 3f
       -0.17280923946044302 0.319874146841638
0000c0 86 0b 81 67 6b 65 b6 3f 98 f6 2c 0d 03 12 d5 bf
       0.08748503949122552 -0.32922436033900615
0000d0 38 9e 61 a3 c1 32 c3 3f 85 cc 38 6c 58 c1 e0 bf
       0.14998646237948932 -0.5236017335613644
0000e0 d2 a2 1a d6 7c dd b1 3f d2 a1 93 cc d5 c5 85 3f
       0.0697858832087477 0.010631246858296448
0000f0 da 3c ab 2e 24 3e c0 3f c3 19 a8 3a 19 28 e2 bf
       0.1268964031100726 -0.5673948426854668
000100 ab 88 04 f8 be 47 d3 bf f0 f4 2f d6 a5 83 de 3f
       -0.3012540266082719 0.4767851440117985
000110 14 94 e2 38 f9 ae c6 bf d4 e0 b8 c2 8b 21 d5 3f
       -0.177214768196024 0.3301724816879077
000120 cb c6 54 c3 15 b2 e0 bf df 69 79 2a 05 06 b9 3f
       -0.5217388930379568 0.0977481106469109
000130 b1 ef 85 51 99 7a b2 bf 95 ba 9d 2d ab 78 ce 3f
       -0.07218321075737212 0.2380575154051782
000140 8a 76 ee 34 5d b3 e8 3f 0f c8 53 63 ce f0 dc bf
       0.7718950303858076 -0.45219764423302505
000150 c8 f1 9a 24 17 cb dd bf 9a 8f 00 e8 eb 27 df bf
       -0.4655206544373667 -0.4868116155287169
000160 aa c3 7a c0 96 81 e4 3f b0 17 1d 13 24 b0 d6 bf
       0.6408189544073271 -0.3545007883698146
000170 58 1f 1f 6b d3 59 d7 bf 99 3d b6 3c a9 ce e4 3f
       -0.3648575349911787 0.6502271829394203
000180 43 5b 28 53 2d 2e 9a 3f 44 ea 1f c8 8b 60 c3 bf
       0.025566776466884333 -0.15138385078155825
000190 b0 eb 22 16 68 2b e2 3f 53 59 ff 32 9c b6 c9 bf
       0.5677986557342276 -0.20088531961546127
0001a0 e0 30 e3 eb c5 8c e9 bf 71 9c dd 57 97 77 89 3f
       -0.7984342200448076 0.012435133332202338
0001b0 1b dd e7 4a 62 e3 a5 bf f7 4e e5 cf 10 8f e1 bf
       -0.04275042690636096 -0.5487140713180158
0001c0 ec aa 1d f4 04 56 db 3f 01 e0 1f 09 b7 85 da 3f
       0.42712520446245494 0.4144113148790894
0001d0 24 30 1a d0 37 cd e1 3f 88 ab 01 28 8a 92 86 bf
       0.5563010277269353 -0.01102168974485608
0001e0 33 1b 8f 5e 31 04 aa bf d3 37 8e 79 c9 49 d5 3f
       -0.050813238900039435 0.33262860174806724
0001f0 16 cd d4 f3 d3 82 e1 3f 2f 31 bd df 12 a3 b7 bf
       0.547220207436484 -0.09233205759409623

depthwiseConv.1.weight f8 [32]
000000 04 e5 9e f7 fa 88 ed 3f 78 63 9e 01 6e 6f ee 3f
       0.922971233019013 0.9511022597899759
000010 1e 7d 84 89 b1 54 ed 3f 87 53 ac a1 22 03 ef 3f
       0.9165885625733698 0.9691327245405866
000020 2a 2d f9 cf fa fb ed 3f c5 23 52 b5 5d 12 ef 3f
       0.9370092451075938 0.9709919492171301
000030 b1 8b 6f 7a db eb ed 3f 59 4d 15 7a 9b 1a eb 3f
       0.9350411788294563 0.8469979652822232
000040 3a 72 15 10 33 23 ef 3f 24 62 66 39 df a5 ef 3f
       0.9730468095909324 0.9889980431644898
000050 76 4a 53 c8 ba f4 ec 3f c3 c4 b8 5f 34 7f eb 3f
       0.9048742210964764 0.8592779035153842
000060 3f 71 79 6c 5d 2d ee 3f 63 26 76 14 05 64 ef 3f
       0.9430377119674985 0.980959453548348
000070 a7 04 91 dc c4 f4 ec 3f 11 7b 0f c7 eb d6 ec 3f
       0.9048790271700867 0.9012354743861996
000080 f1 9d 19 11 82 37 ed 3f 73 b5 04 81 aa 06 ed 3f
       0.9130258878694218 0.9070637245073797
000090 42 b4 a2 85 71 e1 ee 3f 32 38 c6 16 2c 02 ef 3f
       0.9650199518270102 0.969015163880391
0000a0 0f 93 43 17 98 67 ed 3f 9e 4c a4 66 40 0c ee 3f
       0.9188957647680541 0.9389955525133649
0000b0 2d a9 a8 f4 08 85 ef 3f 41 b5 38 f5 07 c6 eb 3f
       0.9849896219723512 0.8679237164957742
0000c0 b4 86 8a d8 40 13 f0 3f 9f 7b 3b b8 94 a7 f0 3f
       1.0047005137097758 1.040913314492833
0000d0 d2 5f 96 3f 2a f0 ec 3f 88 5e 95 35 c2 07 ec 3f
       0.904317020601406 0.8759470984031887
0000e0 81 d1 3e 2d 9a 6a e8 3f 28 77 42 0a 22 b1 e9 3f
       0.7630129703234588 0.8028726768859302
0000f0 d4 d8 9e fd 61 54 ef 3f 24 37 c9 b2 fe df ee 3f
       0.9790506318593324 0.9648431293405548

depthwiseConv.1.bias f8 [32]
000000 aa 62 71 08 1a a4 d4 bf 13 34 5b 60 fb 6e d4 bf
       -0.32251597237113094 -0.31927379998961775
000010 d1 f9 66 a3 0d 07 dc bf 39 db f8 4d 2c 44 e2 bf
       -0.4379304977154819 -0.5708219073193056
000020 b1 1c 5a bf 78 50 e1 bf 8a 60 3d f6 ba 0c e7 bf
       -0.5410732018798595 -0.7203039941187097
000030 ba 3b da 8f e3 92 66 bf 84 ad a2 44 ec bd dd bf
       -0.002755588967211034 -0.4647169752376714
000040 37 b0 cb 08 8a 55 c3 bf ac b8 a1 5e 44 7c ca bf
       -0.15104794911838024 -0.20691732998551993
000050 f6 62 5a 3e a5 34 c9 3f aa 83 06 de a5 35 c9 3f
       0.1969191126306879 0.19694970456205613
000060 ea 1f 2a c1 c8 ac d8 bf 87 6d bc a6 b4 07 d9 bf
       -0.38554591048932585 -0.39109531672303216
000070 1e 96 97 fb 67 7f db bf 07 1b 12 4a 1e c1 b4 bf
       -0.4296512562708318 -0.08107175167434032
000080 99 91 9c c5 bf d8 c2 bf 97 5a 5c a7 64 f2 c6 bf
       -0.14723965786937468 -0.17927225276863076
000090 82 f0 f3 13 4d c6 e1 bf b4 c9 cc 19 bf dc dc bf
       -0.5554566755013328 -0.4509732963516868
0000a0 c0 18 39 d9 69 2c a3 bf 52 76 9c 5e b8 02 e2 bf
       -0.03744822289131511 -0.5628320548891657
0000b0 dc 0a f6 78 89 71 df bf 0e 39 50 14 01 81 d6 bf
       -0.491304748655393 -0.3516237924931297
0000c0 9f d5 e6 b1 bb c0 e9 bf a5 cb 8e 41 fe 7e dd bf
       -0.8047769999163171 -0.4608760490620461
0000d0 7a a2 26 e1 0a 05 b2 bf c3 c9 ff 1c ae 7d e6 bf
       -0.07038944241379311 -0.7028418127431951
0000e0 56 cc 97 b4 4b 7c dd bf 53 e9 81 9a b0 a7 df bf
       -0.46071140895873464 -0.49460997665996337
0000f0 15 68 44 05 48 56 e2 bf c5 29 00 b9 54 80 e1 bf
       -0.5730323889613397 -0.5469153989118288

depthwiseConv.1.running_mean f8 [32]
000000 f3 eb fd 12 e1 e7 44 bf 2f 66 04 9e 60 8a 20 3f
       -0.000637993716721906 0.00012619428071829325
000010 4c 6f 0f b7 0a e6 2d 3f 35 3f fd 4c 05 e0 44 bf
       0.00022810822295482103 -0.0006370569117084337
000020 90 ef 3e ed ec 60 0b bf b6 6f 94 80 3f 50 12 bf
       -5.222056429895962e-05 -6.98603399950638e-05
000030 a8 43 84 fc 33 ea 66 3f b1 88 48 2c 83 da 5d 3f
       0.002797223602222638 0.0018221169458532522
000040 94 49 d3 cf 1a 38 44 bf 0a be d7 e0 ab 75 3e bf
       -0.0006170397679404077 -0.0004647774338470695
000050 86 76 40 2c 7c 46 5e bf 3d 39 3c bd 5a 7e 54 bf
       -0.0018478596330235033 -0.0012508283734323355
000060 41 a0 85 e0 4b 64 05 bf 6d c5 b3 cd ee 3f 11 bf
       -4.080158766123265e-05 -6.580252686540717e-05
000070 8f 12 0f ed 39 25 24 3f 02 b2 bb 77 48 eb 5c 3f
       0.00015369732002858515 0.0017650802319010288
000080 b6 36 94 32 3e 0c 53 bf 87 79 47 d7 f3 d7 48 bf
       -0.0011625869177040288 -0.0007581654195368139
000090 ca f9 fa 26 ac 65 22 3f b6 75 d7 81 4a 6d 12 3f
       0.00014035917728523326 7.029311424085788e-05
0000a0 5b c6 06 42 07 1c 6d bf 45 13 d0 e4 7d 12 0d bf
       -0.003553404021851487 -5.5450884794117204e-05
0000b0 d3 8f ea 4f fb c6 38 3f 57 0f 99 88 f1 44 39 bf
       0.00037807117034049687 -0.00038557907882740466
0000c0 72 20 73 06 53 c8 e8 be f1 26 5f 43 8b b9 0a bf
       -1.1817224914515061e-05 -5.097347495526355e-05
0000d0 97 a8 47 59 e6 e4 61 3f 8b 3f c0 3b 1c 06 56 bf
       0.002184343242551522 -0.0013442302433794597
0000e0 da c7 c0 68 f6 35 04 bf a0 3e 44 43 f2 b3 54 bf
       -3.854902487922226e-05 -0.0012636056754366312
0000f0 67 78 93 ae 5c f5 01 bf b4 ef 34 98 0e f4 0d 3f
       -3.42530164034606e-05 5.71314767747461e-05

depthwiseConv.1.running_var f8 [32]
000000 33 7f 9e 04 e7 4f ba 3f 11 fd b9 12 1f 88 b3 3f
       0.10278171408435526 0.07629579741659522
000010 95 ff 7f df 7e b7 b2 3f d5 16 1f aa 9a 38 c5 3f
       0.07311242062132657 0.16578992182456057
000020 49 10 ed b5 c7 16 c8 3f 0d 75 fe 8e 7c c2 d5 3f
       0.1881951940832798 0.3399955173898242
000030 05 b0 d6 c8 12 11 c8 3f 77 f0 55 8a 0a 07 d0 3f
       0.1880210381181088 0.2504297591147017
000040 52 82 af 1b b2 bb d1 3f b1 e8 9e 23 2c f0 bb 3f
       0.27708103851003785 0.1091334902729695
000050 48 df 16 e1 cb 89 b9 3f 2f c4 4a c2 ee a9 a9 3f
       0.09975885625214886 0.05012460824708175
000060 c1 0b e4 59 ec 28 b5 3f d4 1a 24 91 97 8f ca 3f
       0.08265568918800083 0.20750708186115807
000070 d8 01 a8 cc 70 b9 73 3f 7e 45 18 13 ae d6 cb 3f
       0.004815521834189394 0.2174890130268458
000080 4a a5 87 47 2a 75 c4 3f 50 ab dc 6b 1a 34 b3 3f
       0.15982559673947555 0.07501378186559049
000090 ac c8 eb 3c 6b 78 cd 3f b3 0f 36 ed d9 31 a8 3f
       0.23023739313754754 0.0472553350510049
0000a0 75 5e b2 f0 16 2c d5 3f 65 76 b2 a4 57 65 e3 3f
       0.3308160162500607 0.6061208931675536
0000b0 6d b5 c4 99 80 1b c7 3f d3 cb 03 2b 83 84 c7 3f
       0.1805268050024255 0.18373145675977173
0000c0 cd 22 39 d4 cb 01 94 3f a4 2d c2 0c 28 15 c9 3f
       0.0195381019860033 0.19595814345335072
0000d0 0b 48 96 6a c0 2f e2 3f 33 8f e6 31 8a bb d3 3f
       0.568329055955702 0.3083215224562423
0000e0 be d9 80 b7 ca 3f e0 3f ad ae 71 cd 06 62 d0 3f
       0.5077870925950305 0.2559830671586763
0000f0 eb 5b 7e cf 66 6b b6 3f f1 ce 51 5e 1b 05 cc 3f
       0.08757631841432072 0.21890585046241243

separableConv.0.weight f8 [32, 32, 1, 15]
000000 10 b7 82 74 c7 39 c4 3f 86 f4 c7 27 19 88 ad 3f
       0.1580132788562243 0.05767897234543633
000010 88 ba bb 4f da 21 b5 3f 39 ee 0d 60 55 44 ae 3f
       0.08254780241598259 0.059115093207733733
000020 0a 2d d5 4e 30 59 80 bf 3c f5 ed f7 24 d2 9d 3f
       -0.007982613950523038 0.029121949798981847
000030 13 86 73 62 16 a9 91 3f 32 db 5f df 67 ad a1 bf
       0.017246579894054714 -0.03452610589731932
000040 f3 60 97 2c 94 1e a0 bf 0b e5 68 86 18 2e 8a 3f
       -0.031483297770764106 0.012783233262882129
000050 27 1a 72 fc 5d 4a b0 bf 8d 0c 95 c1 47 70 b2 bf
       -0.06363475239968662 -0.07202576137665258
000060 e2 c5 71 4f 6d c3 93 3f 07 48 76 52 73 85 b2 bf
       0.019300182317641197 -0.07234879267915072
000070 6d 93 54 39 48 80 b4 bf ba e0 7e ee fe 91 a1 3f
       -0.08008242988269183 0.03431698476146168
000080 78 ce 1c 3a 5b e2 9a 3f 1c 8f 93 47 7c d5 5f bf
       0.026254105970294067 -0.0019429887454913202
000090 4d 27 48 1e 42 18 9c bf 80 fa 16 4a dd 23 93 bf
       -0.027436287973649432 -0.018691499373512332
0000a0 25 cb a1 8e 95 c5 8e bf fe 2e 12 c2 d2 4f 67 3f
       -0.015025299468310724 0.0028456798905319705
0000b0 d5 57 9d c9 c1 e7 a0 bf 0a 3e 57 3a 42 72 aa bf
       -0.03301816545597062 -0.05165297472160198
0000c0 f2 04 12 24 83 9b 86 bf f2 60 bb 84 f7 a8 95 bf
       -0.01103880361393059 -0.021152369953456103
0000d0 49 2f 35 15 a9 14 8a bf 0f a5 52 0d 0d bf 75 bf
       -0.012734719238003971 -0.0053091535420801824
0000e0 1a 11 64 b0 49 2e 99 bf b0 8c c1 da de e6 75 bf
       -0.02459063662628678 -0.005347128415539235
0000f0 e6 5f 6d a0 ab 78 67 3f bf dc 7a 19 b2 7c 96 bf
       0.002865157326066725 -0.021960051350757178
000100 54 97 2b 1c 82 dd 93 bf 9e 34 a5 b5 a1 ef a4 bf
       -0.019399674386384305 -0.0408907446131732
000110 bc 13 d1 9a ef 8b 52 bf 38 98 a1 32 e3 73 76 3f
       -0.0011319961443103507 0.005481612674065821
000120 83 87 6a 2b 4c cf 81 bf 7c 36 95 7e c5 e6 8a 3f
       -0.008696169924693247 0.013135474133970641
000130 69 b3 bc 5b fd 75 95 bf 96 5a 44 7c bf 71 92 bf
       -0.02095790741366291 -0.01801203914609547
000140 62 20 81 69 1d e0 99 bf 23 37 94 4a 85 ef 9c 3f
       -0.025268992962338983 0.02825744884199034
000150 35 a7 30 8b 46 ad 8f bf 60 89 5b dc c3 58 73 bf
       -0.015467215655082004 -0.004723324853076555
000160 1e 34 5f ba cb 23 7b bf 37 bf 90 72 b3 ca ba 3f
       -0.006625934422072736 0.10465547129637974
000170 dc 0e f0 19 ac 07 b5 3f dc 2a d1 48 80 42 88 3f
       0.08214831956143648 0.011845590803337407
000180 78 84 c9 7e 2b 41 8e bf 90 61 d4 29 e6 c8 90 bf
       -0.014772739226091 -0.016391369155003555
000190 60 02 9f df 60 49 93 3f 86 e5 16 23 32 14 85 3f
       0.018834603928328142 0.010292426772923201
0001a0 ef 24 7e ce 76 5a a2 bf e1 e2 2f a2 9c e5 78 bf
       -0.03584643622077432 -0.006078349923875876
0001b0 e9 47 e9 38 57 67 8c bf 80 08 a9 33 26 b5 84 3f
       -0.013868981766027093 0.01011113972811395
0001c0 14 95 f5 e9 2b a3 91 bf 29 7d 56 d5 a5 a2 9e bf
       -0.017224012522452162 -0.02991732706652531
0001d0 84 64 17 58 c2 de 60 3f 3d f8 f1 aa 79 2e ad bf
       0.0020593448432291734 -0.05699520313008619
0001e0 da 56 5b 2a 18 7b ad 3f cf 22 95 53 f2 5f a1 3f
       0.05757976071406086 0.03393513937277747
0001f0 68 1f 5c c9 6d 2b 95 3f cf 99 30 27 92 17 9b bf
       0.02067348042967812 -0.026457103387793
000200 73 2b 17 93 ac 1e 9b bf 62 40 cf f9 89 bc b4 bf
       -0.02648419997948843 -0.08100187634340864
000210 28 41 24 b5 b0 c5 b3 bf c1 f9 11 2b 4a 6c 93 bf
       -0.07723526403811276 -0.018967779997632443
000220 3a 4d 72 cb 03 80 aa bf c2 10 00 77 cb f8 b0 bf
       -0.051757925591255874 -0.06629630713729553
000230 cf 03 18 87 07 58 a8 bf 8c c5 fb ec b2 f5 90 bf
       -0.04754661106199586 -0.016562267031024855
000240 61 25 8c 14 e9 da a4 bf 86 e6 3e 31 7a 7f b5 bf
       -0.0407326543409663 -0.08397639944350929
000250 fd d7 d2 1f 2a eb ab bf 14 ac f9 6e aa 49 be bf
       -0.054528538117139626 -0.11831155022962064
000260 92 6c 98 70 88 0c b0 bf 27 a4 54 a4 88 c0 a2 bf
       -0.06269123791610046 -0.03662516599644788
000270 e4 da 84 56 46 19 b3 bf 6d c0 89 17 af 0b b8 bf
       -0.07460441219596309 -0.0939282829729124
000280 22 ad d3 6e e2 35 c4 bf c1 fb a1 f9 a2 88 b7 bf
       -0.15789442454784203 -0.09192865938710694
000290 91 98 0c 8b 24 8e bd bf 03 06 b0 8f 5f 0f c2 bf
       -0.11545017618900234 -0.14109415546413126
0002a0 e7 68 4a 3d 3c da c4 bf 00 0f a7 0c d6 8e c3 bf
       -0.16291001312931216 -0.15279651277352713
0002b0 c9 55 91 19 7f f7 bf bf 6a f7 ac 25 46 2e bd bf
       -0.12487024664127157 -0.11398733539405517
0002c0 c0 90 69 03 92 11 bb bf 69 7f 91 34 7e 79 bc bf
       -0.10573685248670284 -0.11122883590132705
0002d0 f0 f6 94 2d 7e f9 aa 3f 75 8e 49 6c 0d 6b 89 bf
       0.05268472963733284 -0.01241121756283479
0002e0 51 bc cc ae ff 0d 8d 3f 09 3a 0f 94 f5 90 9f bf
       0.014186856767621022 -0.03082641330893846
0002f0 00 22 9d 27 eb 0e 9e bf ae f7 b3 b6 f7 e8 a0 bf
       -0.029353784840425945 -0.03302740197430808
000300 4e 94 91 a9 c3 76 ac bf ec 8e 36 8a 10 e6 b1 bf
       -0.0555935997479443 -0.0699167573389407
000310 d7 22 e9 18 d5 93 ab bf ca 6a e8 06 e6 44 9c bf
       -0.053862246790748074 -0.02760657708322859
000320 1d b6 a0 8c 6b 63 85 bf 7e ff 6e 3f 2f 51 7b 3f
       -0.010443535069579341 0.0066692205063531
000330 35 7b 08 16 cc 41 66 3f 65 77 88 ca 7a 04 a6 3f
       0.002716921430205766 0.043002927039409035
000340 10 62 a7 10 47 de a9 3f 27 d9 37 d0 cd 23 a0 3f
       0.05052396848958918 0.03152316252446701
000350 ed 24 26 22 94 a6 ab 3f 95 53 53 d8 68 6f ae 3f
       0.054005269211367814 0.05944373741809909
000360 1a 7c 50 cd bf f3 a1 3f b5 88 03 fa a0 b9 16 bf
       0.03506278401641101 -8.668942473691567e-05
000370 c2 df 30 78 da 1f 76 bf e4 0d 3d 43 49 93 9e bf
       -0.005401471516101654 -0.02985872719660944
000380 b5 5f a9 67 39 82 a5 bf cc cb cb 85 86 f5 91 bf
       -0.04200915708923906 -0.017538167873634866
000390 36 cb bb 36 a0 90 97 bf e9 d1 ce 03 1d d0 a4 bf
       -0.02301264127795407 -0.04065027877314604
0003a0 af ff e3 06 11 67 80 bf 03 df e5 44 85 56 74 bf
       -0.008009083769593276 -0.00496532495741753
0003b0 bc 28 ea 86 af 6b 8e 3f 60 31 96 80 2e fa a8 3f
       0.01485383158184949 0.04878373450910334
0003c0 44 a5 6e 81 23 52 5b 3f 91 d0 c1 71 cc d4 79 3f
       0.0016675326093980739 0.006306456194682523
0003d0 81 6a 87 d0 72 00 97 3f a9 4f b1 2c de 9f 98 3f
       0.02246264837035961 0.024047347524472382
0003e0 1f b7 4f de 49 38 a4 3f 2b 64 30 f4 5e f4 96 3f
       0.039491947543736076 0.022416576055636888
0003f0 6f 78 5b 20 12 eb 9c 3f 27 e6 c0 af 64 3b 9a 3f
       0.028240473961766484 0.02561719248499208
000400 dc ab a9 1a 54 18 95 3f eb 65 f7 a8 55 f4 61 3f
       0.02060061848389326 0.0021917031333316037
000410 4a 82 ab 43 49 d9 9e bf 5a bb d8 ab 7f d0 a9 bf
       -0.030125756030317676 -0.0504188439630215
000420 f5 a6 03 c3 d1 ce b1 bf e9 db f1 d1 a5 2c 9f bf
       -0.0695620633229302 -0.03044375509167799
000430 b2 47 dc 8a 90 2f 91 bf 20 e7 c6 72 35 2b b6 bf
       -0.016783007121439382 -0.08659681369945504
000440 5a 1b 1e 1b f2 0c a9 bf ee f6 00 03 ad c6 68 3f
       -0.04892689305329752 0.0030244235167903233
000450 bb 37 df c2 ec e9 a9 3f 5b dd bb 7f 66 f5 b3 3f
       0.05061282995994484 0.07796326273443326
000460 a5 62 20 c2 7b 48 47 3f 70 19 3a f1 6e 04 a4 3f
       0.000710544995175051 0.03909632391610074
000470 0b e5 78 e5 48 fa a4 3f 33 47 a9 4d a2 e8 a0 3f
       0.04097202111410966 0.033024856548435365
000480 bc d9 0d 94 8e 0f ae 3f 1b bb 8b 2c f4 26 77 bf
       0.05871244008351392 -0.005652383618083313
000490 e8 5d 4a 37 3e f2 a3 bf dd 3c b4 96 3f 5c a8 bf
       -0.03895754265721135 -0.04757879938744634
0004a0 d1 a6 45 ad d2 9a a6 bf f2 59 96 e8 d3 0e a4 bf
       -0.044149955417038485 -0.039175626890187845
0004b0 01 61 67 f6 21 b3 b6 bf e1 32 77 48 5f 3c b1 bf
       -0.08867084756582601 -0.06732745665722063
0004c0 53 95 05 0f da fe 8c bf 3f 1d c5 7b 52 3b 74 3f
       -0.014157966216496709 0.004939386559562663
0004d0 5d b2 12 96 f0 4b 99 3f d3 f0 73 f6 f1 9c ab 3f
       0.02470374980900868 0.05393177159746334
0004e0 f2 ba 61 7d e4 c2 91 3f 41 f4 40 b4 3f 59 a7 3f
       0.01734501853246235 0.045602789643887316
0004f0 88 ca 98 a7 38 26 b1 3f a9 97 73 1d 0c 10 6a 3f
       0.06698946086616264 0.003181480085561146
000500 db 7f 97 eb 41 29 61 3f a3 31 18 c9 a4 47 4a 3f
       0.0020948684220769404 0.000801997625048002
000510 81 9a a7 d6 3b 6b 4d 3f 34 f8 ba d7 79 a6 8c 3f
       0.0008977930240775118 0.013989402671878627
000520 18 f1 5c 70 34 af a2 3f ee ca ff ad 52 26 bc bf
       0.03649295684451398 -0.10995976207759003
000530 65 63 16 f5 ea 87 b2 bf ea de 85 37 90 83 aa bf
       -0.07238644107418464 -0.05178499868173765
000540 00 6d 85 c1 d8 71 80 3f 80 86 d2 cf a8 22 8a 3f
       0.008029645353124781 0.012761420099482779
000550 60 22 9a 69 91 60 a6 3f d5 b7 d4 3c 41 fe a7 3f
       0.04370550550544716 0.046861685443545
000560 bc 64 ab b2 7b 55 b1 3f c5 ba 8e 27 56 1e ac 3f
       0.06771062004135592 0.054918949440766286
000570 22 a0 7a be 18 4d 8e 3f f3 fa 90 33 e8 a8 7a bf
       0.014795487702329583 -0.006508738552894344
000580 31 98 ff af 2a 5d 8b 3f 25 a9 8c e7 06 93 83 3f
       0.013361295219464693 0.009557775441483127
000590 53 28 90 eb 48 e0 9f 3f 44 37 b2 e1 2e 24 ad 3f
       0.031129016282683896 0.056916680384445445
0005a0 57 90 a3 95 5f 83 a2 bf 0d 2e 50 4a 81 8b 9a bf
       -0.03615854932448375 -0.025922794495313584
0005b0 ca 5a 4d 86 67 b9 a6 bf 9e d8 bc f1 0a e4 58 3f
       -0.04438327326231713 0.0015192133786974603
0005c0 31 4c c8 a4 05 0c 80 3f c7 80 f1 66 b2 e2 94 3f
       0.007835430232296133 0.0203960299808166
0005d0 75 b9 f4 45 56 26 97 bf 63 d7 ab 5b 0f e2 89 bf
       -0.02260718156792892 -0.01263820646770925
0005e0 70 9c a5 61 cf 65 a1 3f 80 f7 0a ff ea 5e a6 3f
       0.03397987429598792 0.04369291652027041
0005f0 88 db 84 58 43 61 ad 3f 17 23 c0 b2 cb 69 84 bf
       0.05738268333009616 -0.009967414276631765
000600 08 8f 6d b1 cd e4 87 3f 95 5c 48 27 79 10 a6 3f
       0.011666876771136994 0.04309443096661273
000610 a0 ac 4d da 18 64 8d 3f 37 6a 48 31 de e1 88 bf
       0.014351076280681163 -0.012149558905595643
000620 e9 75 2c 04 a8 dc ac bf 5a b4 06 00 14 bc ac bf
       -0.056370974072915754 -0.05612242222137161
000630 06 19 87 20 8d bb 84 bf 34 23 76 66 76 8f 51 bf
       -0.010123350672881514 -0.0010718017818780014
000640 d3 51 2a db 56 0c 8e bf d3 98 ee 78 a3 d8 ad bf
       -0.01467197281207514 -0.05829344607563915
000650 fa 60 16 dd c1 63 a7 bf 06 a0 31 36 b5 3b 67 bf
       -0.045682962644777406 -0.0028360881129181363
000660 87 3b 54 ab d0 5a 83 3f e5 c6 6e fa 71 16 8e 3f
       0.009450559834048423 0.01469124837408082
000670 34 e4 9a 6f 17 cd 95 bf f5 aa 24 c3 8b 6a 8d 3f
       -0.021290174662429176 0.014363376515196683
000680 6b 69 56 d4 f9 dc 60 3f fe 66 dc 2d 2a af a6 3f
       0.002058494518405831 0.044305151079425883
000690 55 8d 0f d4 ab a0 b3 bf aa e3 ba 5f 06 c5 5c 3f
       -0.07667039801849758 0.001755958771282299
0006a0 79 cd 6d 73 5b 7a a0 bf 25 1a ec 14 1a 42 89 bf
       -0.032183511581844244 -0.012333110583779458
0006b0 e7 73 19 a0 62 cb 9e bf 5d e8 e4 60 12 92 ac bf
       -0.030072728177731902 -0.05580193932333153
0006c0 dc e4 37 78 75 c3 b2 bf 03 bb 21 cf 90 23 96 bf
       -0.07329496560113874 -0.02162004722816403
0006d0 d4 ca 33 47 77 d6 7b bf 26 b4 e1 f6 7b 04 58 3f
       -0.006796327524386487 0.001465912875143313
0006e0 ed 79 3f e6 71 34 b1 3f bf ec 90 ee 70 2a b1 3f
       0.067206495964889 0.06705385040634136
0006f0 99 03 87 76 03 70 a7 3f 06 22 59 05 8d 55 b1 3f
       0.04577647039287242 0.06771165257044495
000700 d4 f3 d4 bd 07 bc a8 3f 4b 58 9d a4 67 fb a4 3f
       0.0483095568874671 0.040980566830214636
000710 13 74 3e 95 b0 ed 92 3f bd 52 43 2b b4 a4 7d 3f
       0.01848483954346498 0.007237151894703584
000720 fa de f0 1b d6 ed 75 3f c6 f5 5a 08 eb 80 a2 3f
       0.0053537715567057945 0.036139817018447526
000730 36 d3 eb 0d 29 02 70 3f f0 12 8d 87 2a 4b a0 3f
       0.003908310288115049 0.031823472067605496
000740 09 d8 01 3e 81 03 85 3f 81 eb 63 53 c2 17 83 bf
       0.010260591225442555 -0.009322660608168
000750 27 0e bd 7a a1 a1 93 3f 2d b7 88 fa 5e ca 80 bf
       0.01917125999103866 -0.008198492069904606
000760 0d cc 30 40 d6 3d 8c 3f 56 20 fb 3b d9 7c ad 3f
       0.013789819559042038 0.05759314400853614
000770 64 cd 19 6e c9 aa 9b 3f d7 66 51 ef 83 39 b2 3f
       0.02701868757726568 0.07119011490558634
000780 7e 79 6f 9f 50 65 bd bf da 19 39 ef d5 cf b4 bf
       -0.11482719318835241 -0.08129632082373153
000790 d9 e1 b7 be 24 54 8c bf 66 cb 03 28 e3 eb 21 3f
       -0.013832366056690514 0.00013672969726704758
0007a0 97 16 73 34 d6 a1 68 3f 1b 2d 87 14 f3 ab 8b 3f
       0.003006857270153439 0.013511561454740353
0007b0 30 3a f1 8d 55 20 a4 3f 29 ca ce c6 5e 4e a4 3f
       0.039309190346660805 0.03966041733601273
0007c0 7f 7f 9c 26 04 85 96 3f f3 a3 da 38 7c 64 98 3f
       0.021991791588447548 0.023820820779892626
0007d0 d9 92 a5 74 bc cb 95 bf d9 41 86 58 fc 57 9a bf
       -0.021285004252962068 -0.025726263907530942
0007e0 b8 d4 34 b3 16 e4 56 bf b8 35 78 4d de ba 87 bf
       -0.001397154014580777 -0.011586891879256864
0007f0 d2 38 90 08 08 7f 91 bf 2d cc 5a c1 64 de b5 bf
       -0.01708614876047749 -0.08542470665524667

separableConv.1.weight f8 [32]
000000 00 15 f9 4a f0 dc f2 3f 7d ee a1 24 74 3d f0 3f
       1.1789400986320402 1.0150033408125687
000010 ce b1 fd d3 af 38 f3 3f 15 c0 01 89 b1 1c f0 3f
       1.2013395577333656 1.0070052482442453
000020 1c 5f 75 8f 37 90 f0 3f f4 42 70 95 ee d0 f3 3f
       1.0352092365118954 1.2385087811891795
000030 20 7d aa d4 07 56 f0 3f e5 d2 66 f0 31 be f1 3f
       1.0210035617126962 1.1089343443574589
000040 93 bc 5b 2d 71 40 f2 3f 7b 6c 3f 2c 29 1e f3 3f
       1.1407329341707608 1.1948634842326828
000050 f2 10 ce 46 f8 7e f0 3f 0b f1 59 3b 36 35 f0 3f
       1.0309984937494474 1.0129911726390357
000060 77 95 b4 13 e0 f6 ef 3f 03 85 44 c6 72 14 f0 3f
       0.9988861451026158 1.0049922699766405
000070 11 50 64 24 bb f0 f0 3f 7a 5a ed 88 32 2b f1 3f
       1.0587722226673615 1.0730462406842478
000080 58 59 a7 32 7d e7 ef 3f da 6d 53 80 9a 02 f1 3f
       0.9970079411821571 1.063135625145938
000090 83 78 00 c9 6e be f1 3f 09 ef 6c 56 1c 7f f0 3f
       1.108992371715005 1.0310328842160195
0000a0 5a 16 6b ce 6a 1e f3 3f 7f 88 b6 20 35 a1 f2 3f
       1.194926077195666 1.1643573072292666
0000b0 80 fe 26 e5 0d cd f2 3f 9d a6 c7 cd a1 0c f0 3f
       1.175062079550031 1.0030839956547546
0000c0 62 f1 52 c6 51 fe f2 3f 9d 6b 33 94 2b 42 f2 3f
       1.187089705184086 1.1411548413368344
0000d0 37 aa 58 42 ea 53 f1 3f 33 8e 26 8a 81 b0 ee 3f
       1.082987078824443 0.9590461443189667
0000e0 e4 48 3c e8 b5 af f4 3f da d3 b2 07 3f af f1 3f
       1.292898089570877 1.105284719536249
0000f0 d0 90 a3 28 e0 80 f3 3f d5 dd 83 27 ad 1c f0 3f
       1.2189637744386808 1.0070010703619705

separableConv.1.bias f8 [32]
000000 1d 64 42 b7 29 b9 d1 bf e4 4a 8d 78 28 87 86 bf
       -0.2769264497415536 -0.010999981097176321
000010 20 09 53 3a 93 fc bd bf 6d 7e 38 7a 21 7e 74 bf
       -0.1171352403062298 -0.005003100176991998
000020 0e 7c cd 59 f2 8d 86 bf d1 7a 59 c4 d4 de cf bf
       -0.011012929311332822 -0.2489877661455098
000030 1e e7 d7 7c f3 77 93 bf 27 68 07 86 52 e1 ba bf
       -0.019012264723620047 -0.10500064632597682
000040 bc 72 21 a1 aa 5c ba bf 16 1b 84 f9 6a 2e ac bf
       -0.10297647889951639 -0.055041640242100495
000050 38 aa 0c d9 07 b3 9d bf 5b 9f c8 e5 3c 83 86 bf
       -0.02900326025261732 -0.010992503893319563
000060 2a 91 97 3a 59 42 d2 bf 59 81 3c e5 89 a1 8a bf
       -0.28529959413414707 -0.013003423031080418
000070 e7 63 7d 8e 10 74 bd bf e2 82 5b 9a b0 83 93 bf
       -0.11505225638155957 -0.019057044430954025
000080 d9 8a a4 95 c7 ac 7c bf ab 17 6b 07 6e ff 8e bf
       -0.007000712992779789 -0.015135631181134665
000090 2c 2f 82 c5 14 76 be bf b2 68 d6 d9 fd fb a4 bf
       -0.11898927518830921 -0.04098504337453458
0000a0 00 82 d7 4d 09 63 d4 bf ca f5 0c f9 55 99 cf bf
       -0.318544698731813 -0.24686693821597167
0000b0 81 14 9f 27 9d d6 d5 bf 17 2d 91 2d 4a 75 50 bf
       -0.34122399205472936 -0.0010045265573975276
0000c0 74 1e 80 37 a8 d0 cc bf b7 65 c1 92 9a 2c aa bf
       -0.22511770925506236 -0.05112155000160661
0000d0 df bf 5d 44 dc 75 97 bf 41 33 12 19 da f4 a2 bf
       -0.02291053931497788 -0.03702432209056506
0000e0 7d df 24 5b 7f 72 d6 bf 98 4e 92 91 f6 f4 a3 bf
       -0.3507383718565434 -0.03897829558368676
0000f0 db a2 99 b8 db 3e b5 bf f3 83 a0 0f 58 b1 7c bf
       -0.08299039131965051 -0.007005065906953145

separableConv.1.running_mean f8 [32]
000000 ce ac 0f bd d7 8c dd bf aa a7 28 4a ef 75 e1 bf
       -0.4617213579464988 -0.5456463287748552
000010 f6 00 f7 3b e1 1a df bf 89 f9 96 7b 82 9b dd bf
       -0.4860156140894242 -0.4626165587359528
000020 10 40 49 1f 86 14 d3 bf 0c 46 fb 04 9e ed ed bf
       -0.29812768035208226 -0.9352560136123329
000030 fd 34 3f 41 73 2b e1 bf e8 ea 0d 55 7a e6 b9 bf
       -0.5365539812425194 -0.1011730630543003
000040 f3 ea 23 f4 89 4c c3 bf f2 ee 67 87 11 b9 c1 bf
       -0.1507732812968566 -0.13846034156437487
000050 e8 1b 6d 56 ef 65 ec bf 99 42 19 47 db 9e ea bf
       -0.8874432266246659 -0.8318916691442438
000060 df 80 2f 48 7f 89 d5 3f f7 c5 ea 82 6a 9b c8 3f
       0.33651716279383764 0.19224292175708488
000070 7e ae 28 fd 98 5e e2 bf 32 0a c1 26 a8 09 d9 bf
       -0.5740475601682673 -0.3912144068200717
000080 db 86 df d1 e9 52 ed bf 70 17 0f 2d df 41 be bf
       -0.9163712596020689 -0.11819262361595206
000090 7d 27 cd 31 37 48 e9 bf c7 f4 e7 cd c1 99 d3 bf
       -0.7900653813060071 -0.306259585456996
0000a0 e9 e6 e1 dc ef 6e ef bf d8 d0 ec 6f 45 3f cd bf
       -0.9822921098813967 -0.22849338498202232
0000b0 b1 4f 98 50 9d 73 dc bf 27 fe 2c 24 cb 3a cf bf
       -0.4445565497455802 -0.24398173586267655
0000c0 f3 75 ae 1e a8 dd ea bf fd 4e 2c ee 12 7f dd bf
       -0.8395577048538015 -0.46088097819414015
0000d0 f9 a3 40 3e 29 f5 d8 bf eb d4 38 ad 0a c1 da bf
       -0.3899634464201536 -0.418032330667599
0000e0 75 fc 2f 14 83 1c e5 bf 40 6f 54 0a 1c cd d0 3f
       -0.6597304720197729 0.26251889237186177
0000f0 cb e5 b4 3d 1c 58 e3 bf e9 8e 06 3d 7d 80 c8 bf
       -0.6045056538779873 -0.19142117957846175

separableConv.1.running_var f8 [32]
000000 18 44 a6 2d 56 45 f0 3f 34 94 5b 27 44 83 f0 3f
       1.016927889173763 1.032047418347486
000010 9e de c7 2f 9d 7f eb 3f 45 22 aa 14 44 da e4 3f
       0.8593278821199026 0.6516437915425476
000020 7f e2 4c bd 1c 96 ef 3f 70 7a 7b 44 7e 07 f7 3f
       0.9870742509147731 1.4393294024554528
000030 04 20 22 25 7f 49 ed 3f c1 df e7 c4 bc d3 f1 3f
       0.9152217602977548 1.1141936961775942
000040 0c 45 97 e0 7e 04 e9 3f 28 1b e5 be 55 0e f0 3f
       0.781798781065079 1.0034997422059835
000050 f3 49 d4 49 a8 74 f9 3f 3e a0 b6 33 35 4d f4 3f
       1.5909808048205576 1.268849565511132
000060 ec ef 58 fd 92 7f fd 3f dc 4e 6c e4 ff 74 e4 3f
       1.8436460396178473 0.6392821751964806
000070 37 0f 6e dd 0d 6e e9 3f 08 d9 c9 82 f7 0a ea 3f
       0.7946843457034224 0.8138387255155815
000080 23 7e cf 04 f4 56 04 40 71 df bf 26 c2 1b e5 3f
       2.5424576164075616 0.6596384770227656
000090 68 cc 6f e4 2e d8 f2 3f 64 8f e1 78 b3 40 f2 3f
       1.1777790950116245 1.1407961580198043
0000a0 e8 40 3a 1b c2 20 f6 3f 8e 81 2b 18 65 4a e8 3f
       1.3829976142479214 0.7590814086980104
0000b0 5c 8e 0d ec 52 2f f9 3f 92 b8 aa ed c5 01 ed 3f
       1.5740536900347228 0.906466449921725
0000c0 92 d9 e2 3f 92 44 f4 3f 5c 4d eb ef 22 49 f0 3f
       1.2667410369445844 1.0178555843202366
0000d0 d3 3f 5c f5 8f 11 ec 3f b6 02 e3 68 ad cc e8 3f
       0.8771438400453867 0.7749850319451841
0000e0 74 71 99 70 3a 66 f0 3f d6 7c 75 6d e9 d3 e6 3f
       1.024958076325757 0.7133681428785177
0000f0 4b 17 86 2a 57 91 f1 3f f8 4c 06 f7 44 85 e5 3f
       1.0979835187040006 0.672518236608453
