lab2/results/weights/EEGNet_LeakyReLU-88.80.pth (torch_old, 147584 bytes, 17 tensors)

firstConv.0.weight f8 [16, 1, 1, 51]
00000000: 3000 9a9e da3a bbbf a542 c5cf 372e b53f
00000010: 596d ec8c 5d1a bb3f a9e8 eab3 4930 9cbf
00000020: f6ae 9198 a0c9 bbbf 7bf1 9747 1838 53bf
00000030: d8b9 87fb 16b3 b53f 3ddb f2e8 35cd 9c3f
00000040: a675 ce58 effd 78bf b9f1 4d9c b864 abbf
00000050: 0b10 ce1b 65b0 b9bf 350d 9d04 dcc1 bd3f
00000060: 0e7b 4b4a ce8d bf3f 0871 bce9 4826 bfbf
00000070: eeeb a91d 2660 bdbf d552 23bc 9154 ab3f
00000080: 383e b030 00fa bc3f 9793 cc26 c40f 91bf
00000090: 4b42 e210 4864 a9bf 1194 a760 b2ee c0bf
000000a0: 9262 08b3 22eb bc3f 78dd 11c5 13fd bf3f
000000b0: 49f6 daa9 848d b2bf 6ec6 1095 5975 a8bf
000000c0: 50b5 c3ab 9461 99bf 71b8 bb9c d543 a83f
000000d0: 97c5 0cce 25bd be3f d831 b8ad 753a bcbf
000000e0: 42d3 7ab1 3e74 99bf 48e5 7580 3e4e a4bf
000000f0: 5fca 82aa b3ee c33f f741 2334 d023 8bbf
00000100: 0486 1bee 9be2 b6bf c162 8c07 8a25 8fbf
00000110: da17 a4f1 2e96 ac3f 4945 58f0 dc57 933f
00000120: 213d a9c5 7378 97bf 08f6 36ba 25c0 b0bf
00000130: 672d 8363 6ebf a53f 99c2 491b 804e 9c3f
00000140: 6385 f9e2 04c3 80bf 4a00 6e49 bbdf 8e3f
00000150: 8d12 5ab2 f7f7 b9bf c992 e5fc 2391 b13f
00000160: cbd4 cff4 13c8 943f 84c3 c75e 0001 93bf
00000170: cdad 39a4 430c a8bf a6b8 5663 24f3 a43f
00000180: 2444 44f0 bc0c a2bf 0433 ec32 87a8 b23f
00000190: 79f8 34b6 c719 a7bf 3f97 f574 8bcd 8c3f
000001a0: 6ccf 1209 1abd c0bf 154a d92f 14ff 8ebf
000001b0: 6b91 3912 cd60 a9bf b786 b808 a381 8dbf
000001c0: 05bb b59e 4866 c2bf 1f2a d17f f64d 53bf
000001d0: 5341 2b56 bf02 b0bf a8f3 246c 574e c3bf
000001e0: 57c4 4d87 7d9b 94bf e0de 3b88 66f2 c3bf
000001f0: 553c 5fc2 b842 a13f c522 3a63 19e7 b8bf
00000200: 89e8 e6ac d8a5 a33f 4dba bc9e 98ae a1bf
00000210: 05fe d02b 8b6f b33f 8311 210e e917 aebf
00000220: 3ab4 65fa 7b76 b43f f52e 5e2c 9944 953f
00000230: ae28 9f2a d29c 743f 2dd9 ed0b f99f b23f
00000240: 4f72 3d0d 626e 903f 58da ee55 ed29 b43f
00000250: 4402 dc9d 933d b83f f517 b9d2 d46d bc3f
00000260: 19cb 52c2 70a5 a83f 89e8 55cb 0988 86bf
00000270: 2897 dcc3 6934 bc3f 2530 849e cd7e 8f3f
00000280: 3ca5 9c92 4c4d ae3f 88da e87c 6a8d ac3f
00000290: 0cf7 1704 085e b93f aaa3 30cc c903 ba3f
000002a0: 8d97 6def 4402 bd3f 7518 11f6 7995 9b3f
000002b0: 82b1 422f eb0e c13f 8f8e 5c38 f218 aebf
000002c0: 33d1 ae26 ec5a bd3f 0c88 9fc9 56cd b53f
000002d0: 528a e34f 6620 a0bf 4272 8abd b0dc c13f
000002e0: 4183 f4cc 774b a83f 3719 bd72 654f bf3f
000002f0: d8e0 a7bd 43f9 aa3f 7573 c769 4608 8d3f
00000300: 43a1 c9fb b394 ba3f c08f 60d8 f2ae b2bf
00000310: 4ea3 5b87 146f a83f 60ab 8a3f e32a bc3f
00000320: 02ce 9a7d e566 b3bf fdce bff8 1637 c83f
00000330: f906 0cf1 2fb8 b33f 2d88 e807 9c58 b53f
00000340: 50a6 988e b937 b2bf 9d90 9209 ace4 c1bf
00000350: 3e8c fb49 82fc 963f 21a0 cefa f828 ae3f
00000360: 35ab 6303 374d ba3f b5a8 3196 e510 a7bf
00000370: ffcc 1eee e8dc b6bf 70e4 7ae8 5186 bdbf
00000380: a2a8 a70f c245 c33f e533 1162 2b0a 903f
00000390: 9176 fc06 83d2 60bf d074 655a dcce a1bf
000003a0: 78ec 7049 a87f b2bf b41b 201a 58c9 a93f
000003b0: cdd2 74e3 9b27 a13f 85c8 c301 da01 9c3f
000003c0: 9f53 6282 de1e 98bf 7f63 08b7 0c43 c3bf
000003d0: 60b2 a2f9 2fea b63f bd64 4dc5 c8a6 bd3f
000003e0: c2c3 5a86 f8b0 5b3f 8720 942f 0287 bbbf
000003f0: 6309 0cde 4dee 7fbf 18ff fa61 fddd b3bf
00000400: 30bd 2478 fc2f c83f a3a6 c8f4 5342 983f
00000410: cf23 ab55 ee17 babf f346 49dd f185 babf
00000420: bd7d 7c9e fbc5 b4bf dea8 fdda c470 c93f
00000430: 8e8e 2598 0980 9b3f 0a0b fc10 d87c 76bf
00000440: bd92 e6fc 0750 c8bf 8405 7a22 3fce a5bf
00000450: cc01 1f81 7e66 b53f 89ce 9c4a 1a2c bc3f
00000460: ee03 8796 0383 9e3f f325 9180 d03d b7bf
00000470: 0ba5 0512 ef1a c4bf 6ecf ec4e c48c be3f
00000480: ab3b 0d29 c088 c03f 14c8 947e 825f ab3f
00000490: 7aa9 d96f e4d0 b9bf 0b90 0a4e f07d bdbf
000004a0: 0007 62e5 0b9a 9cbf 8d21 e98d 7cb4 c03f
000004b0: 0ce2 471b da62 993f f326 fa9b 5a8f a13f
000004c0: f1a5 325e 962f bbbf 47c2 a86c 563f ba3f
000004d0: 9813 388f c299 8ebf 34c8 2469 69e0 b43f
000004e0: e7f9 738a 3bd2 93bf 90fd 9aba a2d5 c33f
000004f0: d2cb e858 5cef bd3f 38af f4d9 7e70 afbf
00000500: 36af fee4 bd43 603f de5a b4a4 0207 a4bf
00000510: 79a7 8100 b768 b23f ad94 616c ac03 c13f
00000520: baa8 125d bf23 ac3f 3338 6d5c b46a 963f
00000530: 3d77 576a 33fc bbbf 8e8e e973 0cfe 963f
00000540: 1fa9 a358 7270 84bf d6b9 52d1 ffd5 cc3f
00000550: 1e6d 6149 f468 893f 9223 69c5 c190 a33f
00000560: 5a59 ae54 0d44 c8bf 8f86 3d25 92d1 b33f
00000570: 1336 c26a 3ece a73f b7a6 78b6 b6b1 c63f
00000580: fc6f a384 a996 9e3f 04f8 13aa 3c5e 8b3f
00000590: cc05 4680 3fdb b6bf b0bf 1aed d1a6 b8bf
000005a0: f600 fb4a cca2 7b3f 0e12 403e c399 c53f
000005b0: 06b4 1135 33c4 b53f 7038 c5ed 16eb a3bf
000005c0: dfdf 889c 1d7f b0bf 8531 d3fb bc7e abbf
000005d0: 10d0 cff9 9aa8 b3bf 96a2 e7a2 bb73 c53f
000005e0: ae3c 0352 7a61 b23f 6d9e 82ab a140 623f
000005f0: 97ff 0567 152d a9bf 9b3c 7992 d67d bbbf
00000600: 4bcf e72e 67cc 97bf e821 e3fb 40c9 b43f
00000610: 5aba 2a82 826d c13f cab1 ae35 dd9b abbf
00000620: 486e c24b 5ca9 b7bf a129 e87c 7cda 763f
00000630: e8e3 6595 0f75 94bf 2f15 07a2 f6da a4bf
00000640: acc3 bf7c 6a54 be3f 661c cb77 d8b9 ae3f
00000650: 953d 64d5 43cb bebf ee8b 19fe 564d 80bf
00000660: 3c92 6a7f 2fde c53f 1351 7095 d6fc b93f
00000670: b8d6 f84d f4e7 b8bf 520c c02a 5ecc a3bf
00000680: 4e3f b8df 3053 ad3f a5bf a944 bcb4 c2bf
00000690: e7d5 f9ae 9b1f c7bf 13bb bd81 7dc4 8abf
000006a0: 0679 f65b 7832 80bf e03d d6d9 f0bf 823f
000006b0: 9e09 773a 7093 a33f 5883 cd4e 2624 67bf
000006c0: fe90 b3d0 058f c53f cc3d e202 22f8 a63f
000006d0: 921c 37ec c3b0 853f 5f3e 85ac 853c 84bf
000006e0: a07c 136e f004 adbf c425 e6b3 0274 bcbf
000006f0: 1ac6 f389 c2e5 b2bf 9551 b402 571e c4bf
00000700: f68e 25a3 2ba1 b03f e3a0 ca7f 5190 a9bf
00000710: e57b ef2a b6e7 873f 8552 d2a7 e3b1 be3f
00000720: 7132 a84a 443a 743f 85c7 e463 0ca7 743f
00000730: d87c f2d1 75fe ba3f ae09 5f95 52c5 743f
00000740: 1364 28e6 8e3b 76bf b5af c55f 0ee9 c3bf
00000750: 4754 4d72 c72f b73f 2430 19ff 2a7e c7bf
00000760: 4ac8 52cf 066c a1bf a078 7f7a 4837 8dbf
00000770: 7b9e 1624 81a0 b43f ec0d 8b1b ad04 bf3f
00000780: 983d 3d2b d375 84bf c175 112b 7874 963f
00000790: 3b93 8511 27ce bb3f 834b 82aa f112 a6bf
000007a0: ddae 643d 5d03 943f 2fc2 7109 7ab5 b5bf
000007b0: e492 0be9 f4fb 99bf 0ce1 fed4 c9c7 c1bf
000007c0: dcc5 026e 3465 80bf e323 d7c4 d7a0 6cbf
000007d0: 04bf 0795 56a4 a3bf 43f1 8317 21f9 b33f
000007e0: 0b0a 2a8a 15ba b13f bf24 b36f e021 bd3f
000007f0: c12d 3008 2472 a8bf ee34 781a 3613 afbf
-0.10636679050549058 0.08273648092768811 0.10587105455890845 -0.027527953726100538 -0.10854533886748272 -0.0011730420213772175 0.08476394310830615 0.028126566260392883
-0.006101546238736521 -0.05350281627667947 -0.1003478234179626 0.11623931038507325 0.12325753511275314 -0.12167792993972537 -0.11474836563313293 0.053379587379515016
0.11318970860178801 -0.0166617058449848 -0.049593212185872725 -0.13228444785559693 0.11296288367192123 0.12495540200494826 -0.07247189661844645 -0.04777030892036015
-0.024786303504631235 0.04739253557441792 0.1200736644793977 -0.11026702395628918 -0.024857501585489723 -0.039659455472199456 0.155722101456905 -0.013251902190320115
-0.08939528048679085 -0.015208319049223264 0.05583330821723083 0.018889858407481062 -0.022920426310801937 -0.0654319362283432 0.04247612919570081 0.027643205323729523
-0.008184469391553767 0.015075171640774116 -0.10143993477147202 0.06862091945874761 0.020294486825112295 -0.018558507714206765 -0.046968568608317086 0.04091752731925284
-0.03525343354170499 0.07288403504589885 -0.04511856173711321 0.01406392050439431 -0.13077092593232054 -0.0151349618055621 -0.049566658472744184 -0.014407418922078958
-0.143746449942647 -0.001178255769689891 -0.0625419221280528 -0.15082829266057485 -0.020124398597037487 -0.15583497669262325 0.03371217129426244 -0.09727629349266483
0.0383746825277323 -0.03453518808088472 0.07592077083335631 -0.05877617166018736 0.07993292678084254 0.02076949437427707 0.005032368624549628 0.07275349179494546
0.01604607778368666 0.07876475666021443 0.09468958477010242 0.11105089325528168 0.04813721057998616 -0.011001659887132103 0.11017476112155278 0.01537857666019
0.059183495423278804 0.05576641821646883 0.09909105396215184 0.10162030444247586 0.1133158764401669 0.02693739475605424 0.1332677822841895 -0.058784074192115836
0.11466861671835175 0.08516447470131555 -0.031497189762167324 0.13954743628427663 0.047450774926125046 0.12230524111973727 0.05268298807271926 0.014175939658281437
0.1038315286365377 -0.07298200400015187 0.04772247459715705 0.11002941418943868 -0.07578882519265309 0.18918120523414209 0.07702922472892827 0.08338332360338603
-0.0711627934585064 -0.1397910162678543 0.0224476201682473 0.058906345954995006 0.1027407058024153 -0.04505078752920736 -0.08930831731304421 -0.11533080983908106
0.1505663467826866 0.0156637934308498 -0.0020535048605683855 -0.03478134730787874 -0.07226039689060026 0.05036425894655086 0.03350531722609205 0.02735081325312951
-0.023555256565106594 -0.15048369347712406 0.08951091618173157 0.11582617585135586 0.0016901423454493835 -0.10752881681048808 -0.007795623940867055 -0.07760604517079306
0.18896442285902415 0.02369052106420234 -0.10192765800014957 -0.10360633518692079 -0.08114597911161688 0.19875393574631678 0.026855611716554643 -0.005490154275096479
-0.18994235848108146 -0.04258916183335784 0.08359518673297045 0.11004795381159672 0.02979665380712853 -0.09078696383325972 -0.15707195644362346 0.11933543135529387
0.12917329792477736 0.05346305651836772 -0.10084369402617269 -0.11520292191795549 -0.02793139064352257 0.13050801209670873 0.024791152873122654 0.03429682878511455
-0.10619487571479859 0.10252895500958302 -0.014941711421679035 0.08154925171837207 -0.019356661153318824 0.1549571429404577 0.11693360491408036 -0.06140514765351529
0.0019854267956897166 -0.03911598454049224 0.0719103218304137 0.13292460720109514 0.0549602318872799 0.021891420499109592 -0.10931702944023143 0.02245349366638876
-0.009980099992806189 0.22528073998314707 0.012407215585133854 0.03821378264235088 -0.18957678446595133 0.07741654786289075 0.04649539044576669 0.17729839238864084
0.029871605606658122 0.013363336506241559 -0.08928295976331596 -0.09629547156032348 0.006747053164588337 0.16875496425213082 0.08502502484925864 -0.038902966046053034
-0.06443963119170303 -0.05370131086383182 -0.07679146384163027 0.16759438947999133 0.07179989340078194 0.0022280843368951892 -0.049172085596182295 -0.10738888813033258
-0.0232406732920503 0.08119588994589544 0.13615447383695561 -0.05392352371504534 -0.09242798661801388 0.005579458504607977 -0.01997780179360467 -0.04073305824162287
0.11847558541900466 0.06001163923570445 -0.1202890773749828 -0.007960013989935146 0.1708430645131943 0.10151425503164928 -0.09728934196103978 -0.03866857787945634
0.05727532130197109 -0.146140607382674 -0.1806521038412676 -0.013070087930569884 -0.007908764177781535 0.00915516056809812 0.038234240662421856 -0.0028248546790767097
0.16842720690249985 0.0448618534584245 0.010591059347360852 -0.009881061866195027 -0.056678307950045026 -0.11114518062654272 -0.07381835811590812 -0.15717589981126126
0.06495926602434196 -0.04992918667750403 0.011672423539435381 0.11990187499243106 0.004938380016494479 0.005042122267967635 0.1054452550474595 0.005070993987774148
-0.0054278928751268106 -0.1555498092305904 0.09057280102327168 -0.1835378404233562 -0.03402730255892601 -0.014265600431766778 0.08057410365165112 0.12116510317269275
-0.009990358120971973 0.02192867052905512 0.10861438920762805 -0.043113281311113937 0.019544083473347896 -0.08480036478591367 -0.025375200962019742 -0.13890955829788998
-0.008005532843841694 -0.003494664596221929 -0.03836317605225584 0.07802016090494583 0.06924566863202856 0.11379816748662373 -0.04774582481340018 -0.06069344590296476

firstConv.1.weight f8 [16]
00000000: a48b cf44 38bd ef3f 5a20 773f 9b0a ee3f
00000010: 7dd1 2c76 1c5a ec3f 08c7 a38f aac9 ec3f
00000020: 5606 cd1d a310 ef3f 20ab 9e84 0f33 ed3f
00000030: c364 1e1b e055 ee3f 596f 986d d993 ef3f
00000040: 68df 1d87 01e9 ed3f 9efd 00ed aba2 ee3f
00000050: fd51 0a61 7969 ee3f 76f8 a7fa 6a3a ed3f
00000060: f953 13ce 9cff ee3f 5484 a96f 2f54 ef3f
00000070: 1c63 dd5c ba99 ed3f b61b 29a7 f86a ec3f
0.9918481201133216 0.9387947310979243 0.8859998996836534 0.8996174626792888 0.9707809049652478 0.9124829855184977 0.9479828385984991 0.9867980137382616
0.9346931113241057 0.9573573712331613 0.9503752608603119 0.9133810897472034 0.9687027001297103 0.9790265255834449 0.925015622498083 0.8880580201010762

firstConv.1.bias f8 [16]
00000000: 07e3 0f1b 15af 79bd 8278 ab49 a619 743d
00000010: 4db4 1784 a971 64bd 9c51 fd4a 4e35 663d
00000020: 9598 aa8e 4657 26bd ac9e cf9a 348f 71bd
00000030: 2996 c816 dfb6 88bd 658d 64e4 dbf5 803d
00000040: 38fa 44a0 d612 62bd 878f 30e5 9498 65bd
00000050: ea9b fe36 f71b 54bd e949 1aa7 3ce5 7dbd
00000060: ba59 c6d5 1884 3bbd 40cb 4876 f3c0 8dbd
00000070: 5664 e7d9 e5ff 773d 69c9 e0ba 2c97 633d
-1.4599615836683973e-12 1.142563723990809e-12 -5.810532246267644e-13 6.311957436443823e-13 -3.9685446695638964e-14 -9.98136126468512e-13 -2.8096953392339198e-12 1.9281727120500543e-12
-5.136822504045596e-13 -6.13795861043835e-13 -2.857695015568146e-13 -1.6993599693614809e-12 -9.775648362942814e-14 -3.382605761548681e-12 1.3642193721795117e-12 5.567962453915221e-13

firstConv.1.running_mean f8 [16]
00000000: d787 3e37 dda6 493f 5a7f e0dd 5174 aebf
00000010: 8fe7 0af6 9072 673f b933 4b55 c492 9ebf
00000020: 0b5c 5686 13a7 50bf 304e 51d5 1683 87bf
00000030: 7100 2f1e 752a 68bf 4f17 8423 58e5 61bf
00000040: c97b 60d0 941f 96bf 2a83 4642 c8e2 be3f
00000050: 0a83 f23a eb7c 423f 0fbb 211d 2f32 a7bf
00000060: 9492 43ea ef7e 34bf 0d4b ee70 5361 5abf
00000070: d34c 4c41 5fa8 a4bf b1d8 b425 e9a1 b93f
0.0007828312068236487 -0.059481199583614155 0.002862246634632144 -0.029856746393125386 -0.0010163965865552817 -0.011480501542030813 -0.002949932809741589 -0.002184555192914418
-0.02160484811622235 0.12064792268803318 0.0005642078957813501 -0.045304748827098 -0.0003127418260773587 -0.0016101183752865206 -0.040347077103570016 0.10012681170050787

firstConv.1.running_var f8 [16]
00000000: 5f37 8446 2bce f43f c2f7 ade2 d9bc 5040
00000010: aecd 44fc 3ed5 0c40 d406 0c21 628c 3340
00000020: 21bc a171 ae27 3740 01ac 0d2e 199b 0c40
00000030: 345a 336d 717b 0540 acbd e211 d95c 1340
00000040: 5d36 2e63 8013 3240 2ab4 321b 0b36 6440
00000050: 901b c4ca 4ece 0540 c210 09fe 4d3c 4240
00000060: 48dd d925 9824 0640 c3ac 2a4c b3d5 1140
00000070: 36bf 1c53 7ef2 2a40 b20f ba0f 3d32 5740
1.3003342394399267 66.95079867352527 3.6041240414139883 19.54837233108158 23.15500555227857 3.575731620590432 2.685274937753343 4.840671805824439
18.076177786619485 161.6888557424839 2.725736221418124 36.471130136896605 2.7678683240043576 4.458691778282801 13.473620030650277 92.78497689409303

depthwiseConv.0.weight f8 [32, 1, 2, 1]
00000000: f265 9171 c975 cb3f fbd8 7120 e0ad ebbf
00000010: 2be4 67eb ea31 c83f a5a9 b5f9 5ed5 e8bf
00000020: d33d 0035 5ae7 d93f be04 5027 54f8 e3bf
00000030: fecf 5377 9db1 e23f 1734 10f9 feb6 d2bf
00000040: fe60 4712 2c53 c13f 7f21 d69c cc2e f1bf
00000050: 09db 13db e157 8d3f 13d7 975a 1d4b b7bf
00000060: 222f 1590 67cc cdbf 76b4 cd03 8ec2 d73f
00000070: 8a38 94c8 c4f4 d4bf c23f 816d 4803 e13f
00000080: a33a 41fe 600d e23f 362f 6a97 b6eb e3bf
00000090: 144e 71a0 54da d4bf 68bc 594e 80f7 dcbf
000000a0: 3aed 3fd6 da55 e7bf ab85 7c7e b746 bc3f
000000b0: a1a8 fed6 faad bb3f 00df 0f89 f6e8 d8bf
000000c0: 5317 5fed ddd6 d23f af93 4c17 40d8 d1bf
000000d0: 4461 b90a f252 e0bf a329 a6ad 9f17 db3f
000000e0: df0c 0465 75b0 b63f f213 d054 7652 9bbf
000000f0: c852 94c1 1b06 d2bf ac42 2b7c b6fb b93f
00000100: 870e 6594 8ea9 be3f 2bb9 c4b2 5a5a e63f
00000110: 52f8 8a76 6593 6f3f b44c 5e64 21b4 d93f
00000120: 30be 778e 56d7 d2bf 4e79 319d dfb7 d8bf
00000130: 68ff 0ec6 00be e5bf 1bd3 79bf 0937 babf
00000140: 2da6 ea4f dd37 be3f fc6c b02a 497b dfbf
00000150: 37f1 8983 85cf dabf 38de a365 2eab b13f
00000160: ec3a 1b87 426d b83f 42d1 5081 540e e0bf
00000170: 43a9 105c 6479 dd3f 1b3b 5611 35de c8bf
00000180: 8bc5 5011 771d dc3f 3980 5246 192d eabf
00000190: bf9b 43d4 e5c7 e43f 92f6 4dc1 e522 bdbf
000001a0: d739 f216 94ea c2bf 95c5 3d9b 278a e73f
000001b0: 50d7 2226 e9fc bdbf b369 5254 fe5a e43f
000001c0: db06 875f 82e3 dabf ee7c 681d fbbf d03f
000001d0: 7c62 a693 b147 e03f d306 7def adbc cf3f
000001e0: d8e8 d964 8305 c53f d807 80d9 f994 e2bf
000001f0: a62a dc73 04aa e13f 1b7f 985a e98c ba3f
0.214532070592028 -0.8649750360189324 0.18902336592125954 -0.7760462643757832 0.40474562812684417 -0.6240635650466613 0.5841815310109266 -0.2924191887148608
0.13535071270485582 -1.0739256025718473 0.014327778337685186 -0.09098990880724171 -0.23280043158808278 0.3712496792930503 -0.32743949497024316 0.5316507471816225
0.5641331640161592 -0.6225235898323038 -0.32582584064695763 -0.45260627414149335 -0.7292303261341779 0.11045405233428222 0.10812347172637483 -0.3892189348693904
0.2943644350128711 -0.2788238742380668 -0.5101251801925533 0.42331687887112873 0.08863004413801744 -0.02668175594955708 -0.2816228285239899 0.10149708301038157
0.11977473376196644 0.6985295764514253 0.003854463739428695 0.40161928941342784 -0.29439319527498053 -0.38622274733451867 -0.679443728287862 -0.10240231442169227
0.11803992463196585 -0.4918997685324056 -0.41891610951985875 0.06901826840827929 0.09541717337127026 -0.5017492795655374 0.46053418150645004 -0.19428122850919113
0.4392984074684924 -0.8180052159768884 0.6494015832694159 -0.11381374329899988 -0.14778376694125825 0.7356145889336171 -0.11714036160523489 0.6361076018250088
-0.42013606385090235 0.2617175852955843 0.508751667383947 0.24794553941506212 0.16423075127006004 -0.5806855438279355 0.5520040762797478 0.10371263944443536

depthwiseConv.1.weight f8 [32]
00000000: b2bf 6273 3b29 f03f 0b91 b80b 603d ef3f
00000010: 7478 bc87 a149 ec3f bb3b 2980 ed20 f03f
00000020: c364 439a 60b0 eb3f 6080 5356 b4dc ec3f
00000030: df6f 63d7 03e7 eb3f eb7d 670e 6436 ec3f
00000040: 3a62 d48c 52df ef3f a412 94f3 b57e ea3f
00000050: e31b a9e3 8d88 ec3f c306 18eb 5ff8 eb3f
00000060: f698 5be1 4fb8 ee3f 907f 572f 8332 ed3f
00000070: b504 28e4 106d ef3f a0e8 8965 376a ef3f
00000080: 849f bd19 1c03 ee3f 7630 dda3 e086 ed3f
00000090: 51db da1f 3208 ec3f 8fdf 112e 0dee ed3f
000000a0: 0216 4928 842d ef3f 33d2 cbd4 500a ef3f
000000b0: 4fee 1bf9 8fbc ee3f 0786 23de 4920 ed3f
000000c0: 05b4 440d 5b6b ef3f 039f e046 91bc ec3f
000000d0: a9d1 0456 2783 f03f 410c 3bc4 9106 f03f
000000e0: 6a63 08ed ad9d ef3f e971 ec14 b5bd ec3f
000000f0: c7a9 1f35 c66e eb3f 8629 c6c6 69a1 ea3f
1.0100664622550366 0.9762420872616827 0.8839881564233694 1.0080389982501703 0.8652804387048935 0.9019414602335125 0.8719500738911811 0.8816395074208548
0.9960110426500883 0.8279676206007776 0.8916692205901849 0.8740691749264545 0.9599990273971162 0.9124160694736805 0.9820637184312974 0.981715868299279
0.9378796103237481 0.9227145386189608 0.8760004636923019 0.9353090190697787 0.9743061816049592 0.9700092464614215 0.9605178704654892 0.9101914728782398
0.981854940333165 0.8980184921574338 1.032019935618431 1.001603857542037 0.9879979733988027 0.8981576355614013 0.8572722470828972 0.8322037584596707

depthwiseConv.1.bias f8 [32]
00000000: c816 7ba4 5041 dabf aeeb ad19 0ee9 d9bf
00000010: 10b5 c30f 9a04 b6bf ae06 ada7 26f7 d9bf
00000020: d191 08d8 7d5f e5bf 1d7e f762 8cf8 e6bf
00000030: e93b 3830 bc07 c03f cf6f 1062 8222 c03f
00000040: 8b45 b1de e787 d0bf 362c 7e81 b08d c7bf
00000050: 24ed c4f4 ffc6 dbbf cd6f 7d09 5acc adbf
00000060: c1b8 ed63 3bcd e2bf 4ccf 23f3 673a dbbf
00000070: 5b14 4755 6c04 d6bf d8fb df28 0201 e0bf
00000080: ad54 c6ee 4584 e3bf 4c22 53d5 7c50 e4bf
00000090: 5212 5fc5 a798 ddbf cf58 42af cf09 c8bf
000000a0: 4a55 7851 e4a4 e5bf 1cc9 5932 2fef e4bf
000000b0: 186a 5f8a 1b08 d6bf faba 53d1 a933 bdbf
000000c0: 48fc 6163 e4af e2bf cd70 0aae 32d1 e2bf
000000d0: 76be 971e 41cb e1bf 05be 5ea1 0752 e1bf
000000e0: ebca b3b4 63c2 cfbf afe6 3ada 7986 e3bf
000000f0: 04d7 bdb9 b17f c5bf cd0e db03 ca00 dfbf
-0.4102365118272755 -0.40484955318214133 -0.0860077179419998 -0.4057098996600911 -0.6679066867259796 -0.717840379042119 0.12523605684734143 0.12605314052859604
-0.25829502818404454 -0.1840115196503988 -0.4340209856342929 -0.058199704798169806 -0.5875527335863567 -0.4254398226178082 -0.3440199692525476 -0.5001231001223188
-0.6098966277665078 -0.6348251501559132 -0.4624423434691255 -0.18779941613747161 -0.6763784018718664 -0.6541973098194691 -0.3442448474212667 -0.1140695701649114
-0.5839712086743782 -0.5880368613466317 -0.5560613248362205 -0.5412634040603171 -0.24811979602198816 -0.6101655256563471 -0.16795941895878042 -0.48442316414387393

depthwiseConv.1.running_mean f8 [32]
00000000: 17d8 7e69 a947 353f 53e0 1bc8 2906 333f
00000010: 7817 9131 b948 543f 6fd2 a065 7948 513f
00000020: a84a 3eb6 00a1 3bbf 918a 27c7 f03f 03bf
00000030: 317f 5776 18e5 57bf 51c1 27a0 ecfd 60bf
00000040: 3eed 8d6c 7ef9 30bf 8583 8fc7 0a77 fcbe
00000050: 4ab8 79d6 332a 55bf 1a88 7378 5712 493f
00000060: 78af e099 5e9d 253f 4d29 5116 9299 31bf
00000070: bf3f 0e29 09c2 d6be 30fe 9ebb 32e7 f23e
00000080: 4279 b691 7023 3fbf a172 b864 6b3b 35bf
00000090: 48f4 ad15 5329 32bf 0dfe 742b c09a 5c3f
000000a0: 1f52 a903 7cd3 0bbf ffbf 3659 9042 063f
000000b0: dfbe 1e3b 429b 523f 89c1 e8b4 0467 543f
000000c0: 1ed8 8f38 8321 343f 8877 0c10 9570 283f
000000d0: 6492 3a67 7d18 1ebf c22d e07e 60a9 19bf
000000e0: ed24 a1a2 abe9 59bf fc37 1aed 2b51 433f
000000f0: a3ff 6ccd a960 59bf 9729 1abf 7d27 4ebf
0.0003247059444179147 0.0002902843481105189 0.0012380417376944546 0.0010548768536981187 -0.0004215838182456779 -3.671601816159388e-05 -0.0014584292306309527 -0.0020742055505637365
-0.00025901161693982547 -2.7146347267751058e-05 -0.0012918001392807793 0.00076512595196854 0.00016490726278683607 -0.00026855293828433464 -5.425918644955064e-06 1.8027418015041468e-05
-0.00047513483306173634 -0.0003239762488378793 -0.0002771213382216126 0.0017458798082116173 -5.307409488311911e-05 4.245760933530018e-05 0.0011356493746283375 0.0012452646220816063
0.00030717328678464713 0.0001864606820384774 -0.00011480584526652734 -9.789134466602677e-05 -0.0015815902829834875 0.0005895103915507511 -0.0015489252306934785 -0.0009202350613162655

depthwiseConv.1.running_var f8 [32]
00000000: 3beb cc5a 3d5e e43f 0920 030d 5866 e03f
00000010: b7c9 a89e 0314 c83f 76a2 a584 439c c53f
00000020: b76a 6606 5c14 eb3f b11d 79f8 d3ac 783f
00000030: 4531 a297 eb2d b33f 0141 d51c 4578 c33f
00000040: 8998 2aa5 4cbf c73f 0b43 9da2 658b df3f
00000050: 1859 fba6 d70a d93f 60f6 711b af8a bb3f
00000060: c8fb 8604 8c69 a73f 6c72 2fae 9988 c03f
00000070: 6f85 112e d1b7 753f e961 8c55 beba a93f
00000080: a42e 9c83 8e53 e03f 78f5 c6ed c5ca c03f
00000090: b902 ef1d e5cb d53f 18b7 2a27 f4fe df3f
000000a0: e793 63e4 5d11 c83f 32e0 1314 edac c23f
000000b0: 5744 4d88 421e c53f a428 b6df a327 bc3f
000000c0: dd88 4d2f dade e03f 9d6c bc17 5a5f d63f
000000d0: b4a6 f07d 04e9 db3f d6e2 1662 f348 d53f
000000e0: 3219 1daf 39b4 b83f 5f8f d2ef f0d3 d93f
000000f0: f594 67f7 d8b0 c93f dda1 bc13 0e2e d33f
0.6365038655706948 0.5124931577820472 0.18811078307187554 0.16883129097847743 0.8462352871896063 0.006024196634434474 0.07491943790427509 0.15210784824240167
0.18552549423947465 0.49288311844161176 0.391286767070953 0.10758490009353627 0.04572713427796021 0.12916871075767078 0.005302254780958789 0.05025286478320707
0.5101997919568544 0.13118814573492066 0.34056976245123455 0.4999361402977782 0.1880299916439576 0.14590228538850308 0.1649859586273432 0.10997986041744184
0.5272036479839489 0.34956981962177186 0.43609726237137214 0.33257755831759306 0.0965000202678297 0.4035608617798427 0.20070945816329525 0.29968597342897657

separableConv.0.weight f8 [32, 32, 1, 15]
00000000: f6cc 3125 54d5 b23f 539b 41d7 4d66 ac3f
00000010: 8538 a565 b73a 7e3f 4a48 9262 04c0 a63f
00000020: 3ee9 ae49 e114 903f 7263 f463 255c aa3f
00000030: d0f0 da24 7998 b23f edca e836 92f7 ac3f
00000040: ad30 6893 bf11 b63f 5a0b 67f2 ba91 ad3f
00000050: 6a48 5647 5c5d aa3f 0d5e 8fb9 5735 a73f
00000060: 2247 c55c 81b7 ae3f f9a9 4d27 7a92 9e3f
00000070: e866 c041 fa51 b13f ea7c f835 69ed ad3f
00000080: 39fc f5f3 5af8 a53f c27f 5977 a39b 963f
00000090: 1d4d 7ec6 0ad4 85bf bf1f 5731 7da5 a73f
000000a0: c611 2acb ddc2 a43f 4500 5e69 21a1 b03f
000000b0: b7f8 8183 6f73 a23f d23c a97d 575d ab3f
000000c0: 096b 153a 5244 a63f 0a5e bb19 084d ad3f
000000d0: 27ea 7a4e 8423 803f 4166 7b39 7f8b 983f
000000e0: 7a04 a471 f29f 883f 8c9d a3cf c658 9e3f
000000f0: f948 820a 4139 67bf 3042 4643 a04d 9d3f
00000100: ba26 1362 bcb0 903f e151 a632 6a78 a03f
00000110: d5f9 c0a1 a4db 803f 7245 5c75 3ab2 a43f
00000120: 00c0 eddc 4c55 963f b3f3 6ac3 5675 73bf
00000130: f9bd cd8a 258c 8abf ca15 511a 63b7 a0bf
00000140: f30a 03af de1a a3bf 5c54 2ba9 19d0 a3bf
00000150: 826a 4aeb f784 acbf c2eb 7b56 2185 a5bf
00000160: c751 0d74 2224 aebf 9804 7fba bbea 573f
00000170: 8677 08c0 c9fb 83bf 39fe 0b53 5b6f 84bf
00000180: deff 909c 4270 97bf a5db 005c 20ea 5c3f
00000190: aae1 4fdc fea1 7cbf f336 0fc0 39ab 8c3f
000001a0: 1696 ef24 e7d5 a93f 0151 f235 b342 6c3f
000001b0: 966a 5abc 83b0 a43f 232d 6b1e 45d3 a53f
000001c0: 511f 6579 da7e ac3f c71e f62f 48a8 b23f
000001d0: 4c76 d276 0153 a23f 8061 a8be ac45 a73f
000001e0: c272 64cb e0eb 96bf c091 ccf0 99c0 9e3f
000001f0: 16cc 018b 5324 80bf f59d 9411 16fa 93bf
00000200: e7b7 558c 7d23 a5bf 4866 fc6c 4fa6 a9bf
00000210: d98d 47f1 a81c a8bf b7be d27a 312c 98bf
00000220: 1681 1c07 5e35 94bf 3cfc ecbe 8109 8b3f
00000230: 2dd3 dcc8 e5cb ac3f ade3 32fc ff15 b43f
00000240: 4cd5 9c12 3c46 b63f 8a43 5acb 51f6 ac3f
00000250: 9032 6b45 2464 a03f 2f5c fbe3 d2b0 9e3f
00000260: 840f 642d 13d8 823f caa5 18e0 ade3 90bf
00000270: 832f cfbe 0509 93bf 346c 1bdd 37b0 9abf
00000280: 78ef 95e5 0b4b afbf 51b1 a653 fab5 abbf
00000290: 2ddd 699a ea95 9abf 73f2 7405 f599 9dbf
000002a0: 0b56 70b7 a6d6 91bf 7cac ecdb ecb2 a13f
000002b0: b3ec 367f 7be9 ac3f 9f34 a01d 18c4 a03f
000002c0: 9416 1e4e 5d85 8b3f 28e5 5e75 f47a 94bf
000002d0: 626f c58d 49f2 b2bf 86a5 a8ed 854e b3bf
000002e0: 24ec 329e fbee b1bf e4c5 32ed 887e aabf
000002f0: 4286 9efb 8b2e acbf acf3 8ea8 b01d b0bf
00000300: e268 94cd dd95 adbf d301 1515 c22c b0bf
00000310: 2d58 7901 af35 9fbf 0c8e 33bc 5340 9ebf
00000320: 55bf c8e4 7c9d a2bf 4d8a 01a1 c1b4 55bf
00000330: c7a8 69bc 0fb8 5cbf e321 ed1e 628f 8f3f
00000340: 5601 a9a4 8f6c 64bf 4d12 e40e 3dd8 b2bf
00000350: d4ab 64d5 dee9 b1bf f3b8 2c89 936e b0bf
00000360: 8945 ee4c 2db2 a9bf 5e80 143b d74d a8bf
00000370: 1539 8ffe aef3 acbf 67ca a3f8 cd69 abbf
00000380: 9091 ea06 20bf b0bf e77c 6673 6a85 aebf
00000390: 4fb4 4c8a 6794 a6bf 3099 eeb2 8a12 a7bf
000003a0: 808d 7416 89e9 a0bf 15aa 3dc5 336b 96bf
000003b0: e440 e45f 5481 863f 8513 5d09 a81d 84bf
000003c0: e7bf fff6 3100 a33f f64b 156b 887b 683f
000003d0: 3a0a b7ad da26 81bf 1093 a489 230d 9b3f
000003e0: 1d60 ddc0 d51e 43bf 7c02 4dcf c4b0 94bf
000003f0: 3626 74a6 f83e 68bf ed76 e9a8 89e9 97bf
00000400: 48ea 5ea6 7af3 793f 774f 2a5c 39af 953f
00000410: bc4f 5a3f 23bc 8a3f 153a 9e1a 91a2 773f
00000420: a76d dbd2 57ff 753f 6da6 9fd4 01d8 93bf
00000430: deee 40a9 e819 62bf 1af5 b792 24b1 92bf
00000440: 7946 6a7b 89f4 9d3f 4c82 568c a7d1 8f3f
00000450: ef2e b4e7 1cf5 a6bf 6fa1 3c91 02e2 85bf
00000460: 3344 a4f0 5502 9fbf b17b d243 e5cf a7bf
00000470: f539 4854 7a33 aabf 65a6 ba05 f2d2 b2bf
00000480: 527f 5bbc 05ff a6bf 97c9 bb71 df2a adbf
00000490: 6ff0 9fe3 50f0 a2bf 8ec5 108a ad4c acbf
000004a0: fda3 f0b4 d5e6 b5bf 9c0c 045b 93a7 a3bf
000004b0: d77e 10d2 e1b5 74bf 6be2 523d eb5f 82bf
000004c0: 9f95 1183 00ed 4d3f afcb 1c1c 898c 7a3f
000004d0: 9255 9d9f 3766 9cbf f3cb e4fe 8193 95bf
000004e0: 54f3 0308 66c7 60bf 79f2 9257 fa1b 62bf
000004f0: 8f86 ff5a 65e0 953f 9b6f 9f17 2eaf a8bf
00000500: 3467 e642 b1b2 8bbf c327 9c07 296d b1bf
00000510: 2273 23c0 855f b7bf ab4b fb5c 6daf b8bf
00000520: 05db 29a6 d0da b6bf 4e23 e5c8 8181 98bf
00000530: d742 20d4 4a43 a2bf 3f70 4199 e34b a4bf
00000540: ab0f 4c15 3f8f 76bf d657 1c0d 4c23 94bf
00000550: 2125 c8fc 2d37 803f 6db5 ed83 259f 7dbf
00000560: 7dfb 2f2a 949b 80bf 74c6 ebf6 325f 9fbf
00000570: 09be eeb8 0761 7a3f 649f bcd6 db41 89bf
00000580: 139a 8860 5d01 7dbf 1571 a077 2d82 a0bf
00000590: a43a d65d d748 a5bf 7b83 c7b3 7dd7 a1bf
000005a0: b929 8b0b 568b 963f fda6 0a11 19db 923f
000005b0: e2bb 1b9b 0013 78bf 9336 2d72 0a99 9bbf
000005c0: 0d71 258c 3447 923f 4a6b f11b 69a4 8a3f
000005d0: 4396 edb4 eec8 a03f ffec d32f 9f9e 7e3f
000005e0: 2164 826a 48d9 8bbf 63af 7ae4 3590 9b3f
000005f0: 4738 758c 203d af3f eb7f 84fc aecd 693f
00000600: 029d c19c 31ae 78bf 3ac9 192d f10d 973f
00000610: e0f7 754d b8c0 b33f ece9 0010 141d b03f
00000620: 084c 3d12 7ff2 65bf dc55 3f6c b0c0 a33f
00000630: a439 1224 2464 a63f 50b6 fb37 734d b13f
00000640: 57a3 0265 9bdd 953f 8de3 a7eb 93be 913f
00000650: 6bf9 acd4 8327 813f 5eee 93a1 bb8b a83f
00000660: af1a 49c3 931c b43f fa69 bc23 0129 b93f
00000670: 290a fad6 09e8 b23f 668a 1a6a 098d b23f
00000680: 5a11 02e1 78fb b13f 2764 e61b 9577 b93f
00000690: 1d04 c342 14fd babf 6ac6 1cc5 3edf b0bf
000006a0: adb0 ce0f a04e abbf 58f7 f7b5 df69 a3bf
000006b0: 40e8 8d0e 5256 b2bf 9096 9556 8454 a9bf
000006c0: b185 4d83 ad2d a3bf ed19 3989 bc42 a5bf
000006d0: 0126 b783 0e2c 97bf 5ee4 f709 085b 69bf
000006e0: d704 c97b 1736 aabf ac36 b7da 4a07 a1bf
000006f0: 559d d29c ff5f a5bf 2fac 9dc8 eb72 a0bf
00000700: c501 4996 18ed aebf 6e1b a04e 53f5 abbf
00000710: 5bf6 7379 7acd 9bbf 1697 1fa2 ab33 a2bf
00000720: 0253 505e ffe9 a1bf 286b 90c8 4b58 99bf
00000730: 4366 5192 51cf a5bf eb85 ac6b 9689 a1bf
00000740: c291 c3f0 223b aabf 4666 f31f 1990 9abf
00000750: d78c d843 befb b0bf 69d9 c720 404c 97bf
00000760: 1266 5420 bf5f a6bf 1808 2834 af37 adbf
00000770: 6d30 ea04 a77f a3bf 13ed 360e 4ecc 96bf
00000780: 2dc0 0a16 a7a9 a2bf 50a9 cfcc adc4 8fbf
00000790: 870c ca2c deac a3bf 912f 2988 16cf a0bf
000007a0: a025 2987 698a a1bf ad30 a6c0 f248 83bf
000007b0: 07f8 58d4 4222 9dbf 44f0 3855 0e88 a5bf
000007c0: 1609 b8aa 8244 b2bf 0fe4 f239 3270 a9bf
000007d0: ac2d 8e49 da0f a5bf a979 392b fe31 b2bf
000007e0: 6958 3954 083f b3bf 2df3 44d0 848d 9fbf
000007f0: b9a2 0c14 497a b0bf fd0a d847 9f5f 98bf
0.07356763752050086 0.055468018080140034 0.007380215067611333 0.044433724434512614 0.015704650995510543 0.05148426861905521 0.07263905668054638 0.056576317980576586
0.0862083182220796 0.057752458658362385 0.05149353380979067 0.045328847314234456 0.059993784498727956 0.029855641030204414 0.06765712838423676 0.05845192703076825
0.042910425453549235 0.02207808891250785 -0.010658344442879436 0.04618445613192489 0.04054921250375147 0.06495865652505113 0.03603695373839016 0.05344651612232955
0.043489999380389284 0.0572283297930732 0.007880242962859786 0.023969638713287948 0.012023824780501114 0.02963553087547903 -0.002834918053914778 0.028616432291132365
0.01629919384575971 0.03216869228632269 0.008231435953459357 0.040422274423813756 0.02180976961557235 -0.004750574988688183 -0.012962621019794606 -0.03264913269280674
-0.03731437574744758 -0.03869705381445307 -0.05570196864319589 -0.042031328017365435 -0.058869434992320495 0.0014597733770503104 -0.00975759141243394 -0.009978021118057888
-0.02288917618375296 0.0017648044595383963 -0.006990428494639303 0.013998461888970115 0.050460074671530616 0.003449773808435919 0.04040919946892989 0.0426274871475363
0.05565531474945707 0.07288027926380912 0.035789533381131194 0.04545345141758883 -0.022384178556523755 0.03003159076901496 -0.007881786994607547 -0.019508690665274348
-0.04128639543601747 -0.050096971563288906 -0.04709365792566773 -0.02360608398583849 -0.019734830078165087 0.01320172656926221 0.05624311520515444 0.07846069247433603
0.08700919584665207 0.05656676871615847 0.03201402041813595 0.029971404232892403 0.009201192686766786 -0.016493527224303674 -0.018589105387760717 -0.026062844152743916
-0.06111943414268145 -0.05412275572902792 -0.025962510752347946 -0.028907612283762107 -0.01742039198514615 0.034568216177228245 0.05646882942115763 0.03274608003275969
0.013437966295678984 -0.020000285781610533 -0.07400951110088053 -0.07541691829887584 -0.070052839396269 -0.05174663444030239 -0.05504262396358374 -0.06295303454585505
-0.05778401503103382 -0.06318295492838581 -0.03047822424408524 -0.02954226337614156 -0.036357787063365045 -0.001324833956481658 -0.0017528680488348312 0.015410200661464429
-0.0024931722194027435 -0.07361203778789012 -0.06997482976718966 -0.06418726061813 -0.050187507286987794 -0.047468877756046565 -0.05654665810981122 -0.0535415998473539
-0.06541633766989308 -0.05961163195319746 -0.044100986130026436 -0.04506333765248127 -0.03303173445808749 -0.02189331904757282 0.010988864113216264 -0.009822190080407864
0.03711086406826763 0.0029885925693320338 -0.008374889780388906 0.026417308116964355 -0.0005835097997346526 -0.020205569412839783 -0.0029597145509157275 -0.02335181325394491
0.006335715390316361 0.0211762392523975 0.013054156657098186 0.005770270168695042 0.005370467244314814 -0.019378689386860538 -0.0022096199191120455 -0.018253871397964173
0.02925314727560255 0.015536602945588694 -0.04483881309906034 -0.010684986169125136 -0.030282347500421202 -0.04650799229533876 -0.051173994816156844 -0.07353127136107103
-0.04491441654476937 -0.05696771872853217 -0.036989715372300995 -0.05527250585908937 -0.08555350940208935 -0.038387875423745416 -0.005056268798426542 -0.008972013291313993
0.0009132626056610921 0.006481681428158233 -0.027733677975751166 -0.021070510084609095 -0.0020482056426075843 -0.002210606526743594 0.02136381500156986 -0.048211517699854066
-0.013524422506452895 -0.06807190357008523 -0.09130130711441756 -0.09642680664118923 -0.08927635246969252 -0.023931529890691743 -0.03566964950016931 -0.03964148755832796
-0.0055077041804486955 -0.019665897655691676 0.00791774680785068 -0.007231852096862707 -0.008109242951830126 -0.030636593170987728 0.0064401914268468275 -0.012332646837947166
-0.0070813796560629414 -0.032243176319953694 -0.041571359829608384 -0.0348471910435881 0.022015900091710814 0.01841391722215401 -0.00587749706913507 -0.026950991839206195
0.017849751523827218 0.013008900799993523 0.03278299292177824 0.007475492309136244 -0.013598027944953075 0.026917306967035325 0.06101323809217312 0.003149835367494793
-0.00602549915138373 0.02251412236950865 0.07715942278988974 0.06294370070182936 -0.002679107843428511 0.03857947656039659 0.043732766535970385 0.06758804432657795
0.021353176155261746 0.01732855916813807 0.008376150062414841 0.04794107768426835 0.07856105344499541 0.09828192827664131 0.07385312555747049 0.07246455040380226
0.070243411000836 0.099480933486476 -0.10542418126989657 -0.06590645134272113 -0.05333423798524115 -0.03791712852760892 -0.07162964682893946 -0.04947293812692266
-0.03745786884133951 -0.04152478385053713 -0.02262900046279093 -0.003095164967586813 -0.051193937168599817 -0.03325876159543148 -0.04174803532924424 -0.03212677787708917
-0.06040264925514153 -0.05460605940611783 -0.027151025450612525 -0.03555046419186973 -0.034988384497557604 -0.024750885120833704 -0.04259734068973533 -0.03425283493403327
-0.05123242558491682 -0.025940315795059975 -0.06634129673379917 -0.022751810074589516 -0.04369923848771519 -0.0570654631774376 -0.038083285665465684 -0.022263736360156616
-0.03645059722964592 -0.015511853993264296 -0.03842825218910045 -0.032829956170274184 -0.03425912642394313 -0.009416481498896035 -0.028451008043923334 -0.04205364980995843
-0.07135788600865953 -0.0496841140497467 -0.041136571387223014 -0.07107533030782655 -0.07518055015802506 -0.030813288890601576 -0.06436592807279852 -0.023802269706730595

separableConv.1.weight f8 [32]
00000000: cb3a 787b c520 f03f 611b 81d6 9e48 f03f
00000010: 5916 645d b949 f03f 8a1e 2568 7fae f33f
00000020: 85da c08f 1705 f13f e358 f23e 0300 f03f
00000030: 48fd 2b3d c7b8 f23f a9ff 59f6 13ff f03f
00000040: 7af3 e5b5 3725 f23f 50f5 ceb9 4078 f13f
00000050: 740e d33d e451 f03f 633c edcf c651 f43f
00000060: f20f e737 4a57 f23f d235 9990 1300 f03f
00000070: fdb6 2fe3 bf12 f23f 757f 239c c6e5 f03f
00000080: 058b 96ee c49d ef3f bcaa 7182 4781 f13f
00000090: db9d 9bb2 72cf ef3f b69a 9282 eeff ef3f
000000a0: 2601 7c92 1783 f03f 71f9 3042 3b43 f33f
000000b0: b672 bced 3f1a f33f 0dfc 9f0d 0deb f13f
000000c0: cd88 6066 3c5a f03f 0e56 66b6 81d2 f13f
000000d0: 2fac 6ba1 9c28 f03f 19a3 71c5 c920 f03f
000000e0: caad 0d82 6b9c f03f 7931 f2fa ee03 f23f
000000f0: 5f81 e10b 42b2 f13f 01cb a2b9 6c41 f03f
1.0080008338006106 1.0177296046328694 1.0179990432819948 1.2301019733585314 1.0637431731571791 1.0000030955175638 1.1701118840718028 1.0622748969180782
1.134086332836175 1.0918586023465942 1.0199930586831245 1.2699649927269767 1.1463110145277793 1.000018658483317 1.129577529379673 1.0560976123014971
0.9880089435503981 1.0940623374432752 0.9940732468066317 0.9999916601417087 1.0320049020811637 1.2039139352414987 1.193908623368015 1.119885495397969
1.022030258093355 1.1138932347288377 1.0099149995319399 1.008004924073424 1.038188465138648 1.125960331209255 1.106020018014611 1.0159728289988268

separableConv.1.bias f8 [32]
00000000: c2d3 8072 d566 80bf 7920 c419 13b5 9cbf
00000010: 2217 0d51 b378 84bf fa6e 5902 4c73 c4bf
00000020: 07d6 7222 7f6c 84bf d919 10bc 1099 78bf
00000030: 8bbb 72f3 077e c4bf cb7d 3101 21e9 cbbf
00000040: 09e3 420b 88fe c7bf 4986 9929 f8c0 dfbf
00000050: 80df 2400 ab1f 79bf 1920 3f4b 27f6 d8bf
00000060: 08e9 3074 0c76 ccbf 400a f16b 5762 80bf
00000070: 8146 cee4 939e babf e933 ed1d 1bba adbf
00000080: 1f38 c25d 8968 90bf 4048 4188 8de7 afbf
00000090: 3e80 bc72 d1a6 8cbf eb6e 7131 6098 78bf
000000a0: d271 3963 4d72 a2bf 03fd c967 d874 cfbf
000000b0: ca7b c499 4fb2 adbf abf7 8ade eeb9 bebf
000000c0: 25ec 0848 65b0 8cbf 03f2 e7e3 8eb6 c3bf
000000d0: 201f f02b eb6e 80bf 661e af55 0268 60bf
000000e0: f1a5 80ac 5a6d 84bf b273 34b9 5ff5 d3bf
000000f0: bd25 7798 7d11 bdbf 85f4 b9b2 d38d 88bf
-0.008008639866696646 -0.028034494826926413 -0.009995842848762818 -0.15976858248438203 -0.009972565878665142 -0.006005349511730229 -0.16009616267316704 -0.21805203016536576
-0.18745518255106955 -0.4961529165503618 -0.006133716555545621 -0.39002401684092686 -0.22235255883590122 -0.008000071508040496 -0.10398220382765012 -0.058060500529428634
-0.01602377543218136 -0.0623134831263461 -0.01399005538365838 -0.006004691843454184 -0.036028307306626 -0.2457533365995702 -0.05800102951092574 -0.1200246136968121
-0.014008322964505446 -0.15400873306488458 -0.008024060514813025 -0.0020027204131769947 -0.009974201573714732 -0.31185143553176 -0.1135481354932812 -0.011989263431354988

separableConv.1.running_mean f8 [32]
00000000: ac99 0faa 52af e1bf 1e5e 1797 9421 c4bf
00000010: 2581 8c0d 49c9 dfbf 8fd0 0535 c557 e4bf
00000020: fff0 3bb0 6879 e2bf a89e 46a4 6ef2 cabf
00000030: fb00 d471 1bc1 dfbf 7b5b 713f 69f0 d0bf
00000040: 5523 264c 9084 d2bf e492 4ac1 b08a c93f
00000050: 1d2f 6fa9 4cc2 dbbf d6aa 8759 9a5c eabf
00000060: 89bd a97f f143 dabf 658c c3d3 d886 e0bf
00000070: 469c 0260 9b63 e1bf 93e7 2274 500b e9bf
00000080: 6e3c 0be4 459d f0bf 5c23 9ba7 4c64 e3bf
00000090: ffff 8bf3 bef6 e9bf 7b8b 5921 d9f7 c13f
000000a0: 616f fc06 167c e03f 2cae bd73 181e e6bf
000000b0: 7902 f948 1df0 c2bf bce4 5291 9daa e2bf
000000c0: 8d58 bf3d 4934 d7bf f0ff 14bc b63b ebbf
000000d0: 4c3d 009a 17fd eabf 162a f1f2 7668 cdbf
000000e0: 14b3 51f6 e05a dabf 8d83 d5e4 a9de e13f
000000f0: 104e 9b86 3c2c d7bf 5fa3 f593 1fcb e3bf
-0.552651722097655 -0.1572747934103384 -0.49666048358087017 -0.6357141528701663 -0.5773204271386304 -0.21052344342500828 -0.4961613284686021 -0.2646735305365195
-0.2893410438196516 0.19954499662448832 -0.433734097922512 -0.8238040684348913 -0.4103969332417923 -0.5164608131421004 -0.5434090495299493 -0.7826311367309579
-1.0383967311825262 -0.6059935830645418 -0.8113703495764638 0.14037622574241113 0.5151472221800583 -0.6911737690510953 -0.1479527097999556 -0.5833270872455141
-0.3625662901880638 -0.8510392831303744 -0.8433950431662338 -0.229750507949874 -0.41179679922679324 0.5584306210913482 -0.36207497735196714 -0.6185453309854941

separableConv.1.running_var f8 [32]
00000000: 0cd8 ca32 8212 ed3f 5f03 9edd 2b34 f13f
00000010: d0a3 003c d252 f43f 92c4 da4d ccd8 ea3f
00000020: 7246 dada fc2f f13f 3214 dec8 6bdf e03f
00000030: dec0 68b9 55a0 f93f 5ce3 6750 7568 ec3f
00000040: 1687 ef9f 1cf4 f33f 4bf9 ab11 5dd2 fb3f
00000050: e1ae 0435 6772 f03f 00e7 1d65 4978 f23f
00000060: 7d89 11d8 5466 f03f 66f2 043a 8c11 ec3f
00000070: 176b 16d4 0742 f53f 2088 769c 8636 f23f
00000080: a3eb a80f 07c8 0540 a822 82f2 3fdb f23f
00000090: 17be 2f38 1302 f13f 8afe 6e46 35b8 e53f
000000a0: b240 8f50 340f f03f 6348 174b a12e f13f
000000b0: ee05 cfb6 8995 ed3f 6661 c08c 2f41 f63f
000000c0: aeb0 30d2 b80a e93f 7a5c 472b de13 f73f
000000d0: c99f 2901 85c8 f63f 5425 abb9 b899 e53f
000000e0: 0f73 2fc8 a21a f13f 9264 0aad 4112 f53f
000000f0: 0012 dbc9 1a21 f03f a9d0 8902 f034 eb3f
0.9085093490637077 1.0752371460841557 1.2702200263831749 0.8389646072956956 1.0742157505923413 0.5272730754082942 1.6016442530199622 0.8877512522150073
1.2470976111876033 1.738858288793909 1.027930457213124 1.1543668699145542 1.0249832573104805 0.8771420605840603 1.3286207470579876 1.1383119689785488
2.722669718115371 1.1785277817709048 1.0630066103730138 0.678736341062135 1.0037120005472784 1.0738842900505225 0.9245041437608827 1.390914487658017
0.7825588326718582 1.4423505487991677 1.4239549680150836 0.6750148416842117 1.0690028972377978 1.316957164707024 1.0080821881284692 0.8502121018959957
